Homework 02/pth_folder/3_16_11_31_9348.pth (torch, 390002 bytes, 22 tensors)

conv1.weight f4 [32, 3, 3, 3]
-1.988395 -0.41007388 0.1418872 -0.66758215 0.9619862 1.0570008 -0.5088076 0.8358681
1.2315452 -2.0400603 -0.71360314 -0.03306153 -0.6620309 0.94755816 0.98812973 -0.66010785
0.7760181 0.958784 -1.9851756 -0.73145634 0.06038079 -0.55338067 0.86474055 0.89992636
-0.82504 0.78265846 1.2295783 -1.3279158 0.36481982 1.1561397 1.2915211 -1.2405128
-0.049634695 0.38601696 0.4835892 -0.9172349 -1.594937 0.18075377 1.1626134 1.0474722
-1.4154952 0.015257995 0.5055619 0.7345369 -0.95292836 -1.4496995 0.49284598 1.1257184
1.310098 -1.3375739 -0.19113517 0.5003062 0.6578839 -1.0211731 -0.104911834 -0.901456
-0.36942598 1.4132798 -0.94496596 -1.5056363 1.3928524 0.865731 0.21497968 -0.19725583
-1.0905294 -0.345218 1.4159672 -1.0633839 -1.5939342 1.177435 0.6984232 0.076161705
-0.25326008 -1.070855 -0.22897531 1.341785 -0.908451 -1.275299 1.3950624 0.8943361
0.17269318 -0.00792758 -4.565798 0.02160552 -0.28611016 -5.6740184 -0.21529849 -0.064476416
-0.48048684 -0.27404132 0.20335299 -4.6883383 -0.17390034 -0.38447225 -5.658386 -0.073400825
0.07815061 -0.6901069 -0.18957607 0.28663367 -4.5317526 -0.09259933 -0.28468364 -5.35002
-0.0145670995 -0.07254007 -0.75810325 -0.047416285 0.26829648 0.3367742 0.12041233 -0.9316676
0.5893817 0.7432276 -3.6898212 0.22472139 -0.07584167 0.30007392 0.36737704 -0.04398015
-0.7443605 0.48136976 0.8409253 -3.6969218 0.20436577 0.17251122 0.19030675 0.51412326
0.007230616 -1.0149597 0.39629424 0.84532243 -3.5540175 0.40109718 -0.035500642 0.5542442
-0.8136223 -0.9949196 0.48626745 -0.1316627 -0.18503377 0.97615314 2.8900156 0.16256405
0.5541467 -1.011199 -0.89518136 0.6875211 -0.08104088 -0.22833373 0.8675793 2.8562994
0.069115914 0.2716503 -1.14401 -1.200717 0.33669245 0.14296944 -0.20759383 1.129903
2.8441222 0.06475874 0.04492556 -0.91505116 0.10804648 1.1000357 -0.766321 1.1191134
0.29647413 -1.9909953 1.4110457 -0.11940454 -1.0445483 0.14957966 1.1168785 -0.52999955
1.1000161 -0.03259172 -1.9818857 1.2967044 0.13461412 -1.1226975 -0.033589914 0.9599756
-0.53004694 0.8394742 0.094899654 -2.0081575 1.4721911 -0.28303337 -2.0339503 -2.5384364
0.08274034 2.0353127 -0.26926288 -0.20729136 0.0797438 -0.08240823 -0.037580274 -2.1571476
-2.8083942 0.3371982 1.9416323 -0.22973002 -0.03375503 0.16090225 0.2022889 -0.0073292595
-2.2154424 -2.7269337 0.25891012 2.059753 -0.25320488 -0.02836113 -0.029345812 -0.07684695
0.38302553 0.1232029 -0.09159496 1.3970133 -0.12116842 0.83002716 -1.805847 -2.7396605
-0.5807281 0.63580763 -0.09349876 0.01142863 1.3316283 0.042477515 0.64009756 -1.9417044
-2.8258216 -0.6654414 0.3864549 -0.15274617 0.090721376 1.1559322 0.076714605 0.7995631
-1.9519246 -2.7902737 -0.5299089 0.028014086 0.49868223 -0.62781096 0.050536685 1.7897036
-1.9648194 0.053416084 0.057357766 -0.13420485 0.124316834 0.63825697 -0.5005705 0.016680576
00000000: ba83 febf 34f5 d1be e14a 113e aae6 2abf
00000010: ba44 763f cd4b 873f 3741 02bf 74fb 553f
00000020: 46a3 9d3f 5990 02c0 b2ae 36bf 876b 07bd
00000030: db7a 29bf 2c93 723f 12f6 7c3f d4fc 28bf
00000040: 1fa9 463f de72 753f 3c1a febf b940 3bbf
00000050: d951 773d 5baa 0dbf a35f 5d3f 9361 663f
00000060: d235 53bf 4e5c 483f d262 9d3f 25f9 a9bf
00000070: aac9 ba3e 63fc 933f 9050 a53f 20c9 9ebf
00000080: c04d 4bbd 04a4 c53e 0199 f73e e8cf 6abf
00000090: e526 ccbf 8417 393e 84d0 943f 9213 863f
000000a0: f22e b5bf abfc 793c 816c 013f 9c0a 3c3f
000000b0: 1df3 73bf c18f b9bf 4f56 fc3e 8a17 903f
000000c0: 4bb1 a73f 9f35 abbf f0b8 43be 1114 003f
000000d0: 146b 283f cdb5 82bf 04dc d6bd d2c5 66bf
000000e0: 6725 bdbe 5ae6 b43f 4ae9 71bf b1b8 c0bf
000000f0: fd48 b23f 8ca0 5d3f a223 5c3e 6ffd 49be
00000100: 7896 8bbf 6ac0 b0be 6a3e b53f f71c 88bf
00000110: 0906 ccbf 31b6 963f ddcb 323f abfa 9b3d
00000120: 4eab 81be c711 89bf 8178 6abe 9cbf ab3f
00000130: 3f90 68bf ff3c a3bf 6891 b23f 36f3 643f
00000140: 7bd6 303e aee2 01bc 041b 92c0 0ffe b03c
00000150: 087d 92be 8f91 b5c0 3577 5cbe 360c 84bd
00000160: 5f02 f6be 254f 8cbe c43b 503e de06 96c0
00000170: ee12 32be 8cd9 c4be 8011 b5c0 2c53 96bd
00000180: 6d0d a03d d9aa 30bf 3b20 42be a6c1 923e
00000190: 1e04 91c0 b8a4 bdbd 0ec2 91be 5d33 abc0
000001a0: d8aa 6ebc e38f 94bd 0e13 42bf 9437 42bd
000001b0: 285e 893e ab6d ac3e bd9a f63d c581 6ebf
000001c0: b8e1 163f 2a44 3e3f 0826 6cc0 5d1d 663e
000001d0: e152 9bbd 4aa3 993e d818 bc3e 8824 34bd
000001e0: 698e 3ebf 1976 f63e e146 573f 5e9a 6cc0
000001f0: 4345 513e c8a6 303e c6df 423e 959d 033f
00000200: ceee ec3b 33ea 81bf 14e7 ca3e 0d67 583f
00000210: 0675 63c0 9c5c cd3e 1f69 11bd f3e2 0d3f
00000220: 8d49 50bf 0db3 7ebf 0cf8 f83e 96d2 06be
00000230: 7e79 3dbe 2ce5 793f 04f6 3840 3177 263e
00000240: 8fdc 0d3f f86e 81bf 9b2a 65bf 6201 303f
00000250: c3f8 a5bd 51d0 69be ad19 5e3f 9ccd 3640
00000260: a58c 8d3d c015 8b3e eb6e 92bf 18b1 99bf
00000270: f462 ac3e 9566 123e 7a93 54be a9a0 903f
00000280: 1906 3640 3ba0 843d dd03 383d cb40 6abf
00000290: 7947 dd3d f8cd 8c3f 9d2d 44bf 1c3f 8f3f
000002a0: 75cb 973e efd8 febf 259d b43f 5e8a f4bd
000002b0: c2b3 85bf 692b 193e e0f5 8e3f 0dae 07bf
000002c0: 54cd 8c3f e57e 05bd 6eae fdbf 69fa a53f
000002d0: 49d8 093e 8db4 8fbf 9495 09bd f6c0 753f
000002e0: 28b1 07bf c8e7 563f c05a c23d a785 00c0
000002f0: c270 bc3f c0e9 90be 3e2c 02c0 be75 22c0
00000300: c473 a93d 9042 0240 d3dc 89be 3044 54be
00000310: b850 a33d a5c5 a8bd c6ed 19bd b50e 0ac0
00000320: bbbc 33c0 3ea5 ac3e 6887 f83f 593e 6bbe
00000330: b742 0abd 8fc3 243e d224 4f3e 492a f0bb
00000340: cfc9 0dc0 1586 2ec0 de8f 843e fed2 0340
00000350: 12a4 81be 9a55 e8bc a166 f0bc ef61 9dbd
00000360: ec1b c43e cd51 fc3d 2396 bbbd 55d1 b23f
00000370: 2627 f8bd a97c 543f ff25 e7bf 9956 2fc0
00000380: 99aa 14bf 4ac4 223f 477c bfbd 263f 3b3c
00000390: cc72 aa3f e7fc 2d3d 6fdd 233f c589 f8bf
000003a0: 43da 34c0 5e5a 2abf 6bdd c53e 7e69 1cbe
000003b0: 21cc b93d 96f5 933f 8c1c 9d3d 2bb0 4c3f
000003c0: aad8 f9bf d893 32c0 1ca8 07bf cc7d e53c
000003d0: 4753 ff3e 38b8 20bf 8eff 4e3d 0215 e53f
000003e0: 347f fbbf d3ca 5a3d faef 6a3d ff6c 09be
000003f0: d399 fe3d cf64 233f 6325 00bf b4a5 883c

conv1.bias f4 [32]
-0.19100328 -0.14633088 -0.46861038 -0.039560843 0.11614601 0.06699504 0.005930783 0.11704714
-0.20819795 -0.8467685 0.47813815 -0.3020668 0.0698258 -0.039513096 -0.52080286 -0.075866655
-0.026851771 0.32533574 0.060476087 -0.11948791 0.6639734 0.19098903 -0.11442546 -0.17210047
0.09119697 -0.49537984 0.32735896 -0.28113115 0.46665052 0.19144258 -0.07730158 -0.27907047
00000000: 5d96 43be c3d7 15be b3ed efbe 8d0a 22bd
00000010: f6dd ed3d b234 893d 0457 c23b 69b6 ef3d
00000020: d831 55be d2c5 58bf 86ce f43e 80a8 9abe
00000030: d400 8f3d 7cd8 21bd 5653 05bf fa5f 9bbd
00000040: 3ff8 dbbc 6892 a63e c6b5 773d 14b6 f4bd
00000050: 29fa 293f a192 433e e557 eabd 1b3b 30be
00000060: 7ac5 ba3d 6da2 fdbe 989b a73e 6cf0 8fbe
00000070: d1ec ee3e 8609 443e 4a50 9ebd 53e2 8ebe

conv2.weight f4 [32, 32, 3, 3]
0.563236 0.7699012 -0.13282704 1.7968135 1.4291005 -0.57341784 2.2594237 0.8016914
-2.4673316 -0.5549298 -0.6777203 -0.9795807 -1.664379 -1.6813195 -1.2700322 -2.5178945
-1.7152331 -0.642204 0.07365687 -1.360694 -0.6273908 0.3882731 -0.35194883 -0.47917506
-1.4564356 -1.2579552 -0.8967938 -0.8208934 -0.113022834 -0.47491896 -0.6276714 0.038119208
-1.0089906 -0.36760956 0.40966818 -0.40909174 -1.1260107 0.08927395 0.54818743 -0.909987
0.84730273 0.8764432 -1.3633398 -0.14187363 -0.88619393 -2.1497648 0.14764501 -0.16679865
-0.13174412 0.97281504 -0.35272592 0.3632488 0.6017807 -0.4664599 0.6942102 0.86074215
-0.23823518 0.9923948 -0.4551219 -0.025800385 0.5251773 -0.28848717 0.20942521 -0.87763655
-1.0690763 1.6108547 0.6475279 -0.40639314 0.7298823 -0.24790613 0.5045121 0.8907069
0.12603368 0.8102613 0.10734168 0.31177527 0.32459724 0.099090666 -0.836093 -0.13532843
0.14826839 -0.7225418 -0.17619327 0.7741459 -3.1431816 0.16425034 0.28879815 0.6861453
0.73959064 0.3642895 -0.3364342 -0.29609346 1.5369633 0.3471103 -0.24365413 1.8250093
1.9159937 0.7582643 1.1608568 -1.6117641 -1.4556028 -0.09177648 -1.8104715 -2.105961
-0.8355631 -0.9439128 -1.9598888 -2.2981493 -1.3825774 -0.21891329 -0.9111593 -1.1919634
0.08981015 -0.54424196 -0.34130943 0.16899696 0.8385259 -0.35571733 0.25914523 -0.9392188
-3.356185 -0.60811394 -3.026844 -1.471962 -0.13634987 0.7159379 0.8698423 0.58908165
1.9083163 -0.6794112 -0.66306114 -0.8352767 -0.38153908 0.90192306 0.15598801 -3.3560324
-0.81612515 -0.094338916 -2.7406487 -1.2517774 0.41187015 -1.4215047 0.0563205 0.53220564
-3.1591413 -1.7981528 1.1432753 -2.0700736 0.2631202 0.7857346 -1.5668622 -0.27900082
1.3424699 0.2246972 0.041201502 1.1821007 0.6933299 1.345112 0.5193054 0.11759726
1.124913 1.3818756 0.8574052 0.2045202 0.44204292 -0.4462154 0.015570385 0.19600882
-1.7683337 -0.0031202266 0.20757203 0.9620177 -0.7605849 0.8559438 0.83256197 0.9806624
0.2996861 0.12758435 0.6317824 0.503077 -0.308362 -0.55408144 -0.20538256 0.11545878
-1.8886003 0.1580301 -0.9917154 -0.7293637 0.09192024 0.92867696 1.3076044 -0.43622574
0.64717776 2.0642326 -0.45235786 0.93914795 1.2521048 -1.5042275 -0.025350856 -0.435441
1.449524 -0.23815161 -1.2042109 0.3766576 0.10594971 0.3225848 -0.4034271 -1.7471732
-0.073797114 0.47582415 -0.5439022 0.24409465 -0.012946782 2.0624106 1.0152516 0.7917239
-1.8943624 0.14904916 0.21391533 -1.7389272 -0.58333915 -0.65310997 0.36064252 -0.14883937
0.07762626 -1.2026583 -0.66430223 0.044046953 -2.2944932 -0.31370822 0.049801778 -0.73715574
0.21279557 -0.07979018 -0.71298915 2.4515631 -0.8823817 -2.3112183 -2.3521292 -0.88695234
-0.5767562 -1.1197538 -1.7386876 0.26101977 -1.2129744 0.8219054 -1.2331316 -1.3149472
-0.650146 -1.07651 0.4525915 -1.1440928 0.9789004 0.20297965 1.3995781 -0.32383525
00000000: 3c30 103f 3f18 453f d003 08be fcfd e53f
00000010: c4ec b63f 83cb 12bf 669a 1040 a63b 4d3f
00000020: c3e8 1dc0 e10f 0ebf 147f 2dbf cdc5 7abf
00000030: 5f0a d5bf 7a35 d7bf 6a90 a2bf 2f25 21c0
00000040: c28c dbbf 7b67 24bf 6ad9 963d 392b aebf
00000050: af9c 20bf bbcb c63e a332 b4be 6f56 f5be
00000060: 7b6c babf ad04 a1bf 4794 65bf 1226 52bf
00000070: 8478 e7bd 9428 f3be 13af 20bf e322 1c3d
00000080: 9b26 81bf 5237 bcbe 07c0 d13e 7974 d1be
00000090: 1e21 90bf 43d5 b63d 0356 0c3f e8f4 68bf
000000a0: d5e8 583f 955e 603f eb81 aebf 5247 11be
000000b0: 9bdd 62bf bf95 09c0 4130 173e 44cd 2abe
000000c0: eee7 06be 680a 793f 7e98 b4be bffb b93e
000000d0: 4d0e 1a3f d5d3 eebe c2b7 313f 9959 5c3f
000000e0: ecf3 73be 960d 7e3f bd05 e9be 545b d3bc
000000f0: 0572 063f 97b4 93be 9073 563e caac 60bf
00000100: 7ed7 88bf 7d30 ce3f 63c4 253f c312 d0be
00000110: 91d9 3a3f 1bdb 7dbe b427 013f 5e05 643f
00000120: f90e 013e 496d 4f3f f4d5 db3d 02a1 9f3e
00000130: 9c31 a63e 0cf0 ca3d 310a 56bf 8993 0abe
00000140: abd3 173e 80f8 38bf 026c 34be 6d2e 463f
00000150: e329 49c0 3e31 283e 5add 933e 38a7 2f3f
00000160: d055 3d3f 2784 ba3e 1a41 acbe 9099 97be
00000170: 37bb c43f 71b8 b13e 7880 79be e899 e93f
00000180: 483f f53f 9c1d 423f f596 943f 494e cebf
00000190: 3151 babf 4ff5 bbbd 88bd e7bf 11c8 06c0
000001a0: 77e7 55bf 45a4 71bf a3dd fabf e114 13c0
000001b0: 4cf8 b0bf ce2a 60be bc41 69bf 4292 98bf
000001c0: 62ee b73d 7153 0bbf 1cc0 aebe 8a0d 2d3e
000001d0: a2a9 563f 9520 b6be afae 843e a570 70bf
000001e0: bccb 56c0 5bad 1bbf d0b7 41c0 4069 bcbf
000001f0: 4d9f 0bbe b547 373f fcad 5e3f 0ece 163f
00000200: b543 f43f e4ed 2dbf 60be 29bf b2d4 55bf
00000210: 1759 c3be 6ee4 663f 52bb 1f3e 3cc9 56c0
00000220: 94ed 50bf c334 c1bd ca66 2fc0 3e3a a0bf
00000230: a5e0 d23e def3 b5bf 53b0 663d a13e 083f
00000240: 5f2f 4ac0 df29 e6bf d856 923f 167c 04c0
00000250: b1b7 863e e725 493f f18e c8bf 32d9 8ebe
00000260: 0ed6 ab3f 0617 663e e8c2 283d 134f 973f
00000270: 117e 313f a12c ac3f 33f1 043f d5d6 f03d
00000280: 26fd 8f3f 4de1 b03f e87e 5b3f be6d 513e
00000290: 7353 e23e 5876 e4be ee1a 7f3c 89b6 483e
000002a0: c258 e2bf b77c 4cbb c38d 543e cb46 763f
000002b0: b1b5 42bf 221f 5b3f c822 553f b10c 7b3f
000002c0: 7570 993e 79a5 023e 7ebc 213f a7c9 003f
000002d0: a0e1 9dbe 48d8 0dbf ce4f 52be a775 ec3d
000002e0: a8bd f1bf a4d2 213e 0fe1 7dbf 94b7 3abf
000002f0: ae40 bc3d c6bd 6d3f 955f a73f fb58 dfbe
00000300: 71ad 253f 631c 0440 739b e7be 006c 703f
00000310: f844 a03f 878a c0bf 99ac cfbc 1ff2 debe
00000320: 018a b93f 04de 73be 9523 9abf 44d9 c03e
00000330: 29fc d83d d629 a53e ff8d cebe 5fa3 dfbf
00000340: f122 97bd 399f f33e 2d3d 0bbf f3f3 793e
00000350: bd1e 54bc 89fe 0340 c4f3 813f 6bae 4a3f
00000360: 787a f2bf 58a0 183e 9f0c 5b3e 2b95 debf
00000370: b755 15bf 3732 27bf 23a6 b83e 5969 18be
00000380: 84fa 9e3d b5f0 99bf b60f 2abf 946a 343d
00000390: fad8 12c0 5d9e a0be f3fc 4b3d 3db6 3cbf
000003a0: 15e7 593e 0969 a3bd 7586 36bf 69e6 1c40
000003b0: c4e3 61bf 00eb 13c0 4989 16c0 4f0f 63bf
000003c0: 4ba6 13bf 1854 8fbf 518d debf 62a4 853e
000003d0: bf42 9bbf 6468 523f 42d7 9dbf 3150 a8bf
000003e0: f86f 26bf 14cb 89bf 13ba e73e a271 92bf
000003f0: 3799 7a3f e6d9 4f3e 6025 b33f bccd a5be

conv2.bias f4 [32]
-0.09865894 -0.028644174 0.045260713 -0.026496002 -0.035606656 0.10470629 -0.0074904407 -0.13305831
-0.019936403 -0.0013634367 -0.089500844 -0.085258216 -0.0027733713 0.07144968 -0.27675998 -0.32790712
-0.03956613 0.2333508 0.1922394 0.19409971 0.0012012974 0.121752284 0.058481485 -0.3261282
0.035618838 0.05416481 0.13380481 -0.17430218 -0.06533606 -0.049547598 0.003860195 -0.17378396
00000000: b30d cabd 30a7 eabc 4c63 393d 250e d9bc
00000010: 49d8 11bd 4070 d63d 5f72 f5bb 7040 08be
00000020: ab51 a3bc 58b5 b2ba 384c b7bd dc9b aebd
00000030: 73c1 35bb 3654 923d 7cb3 8dbe 71e3 a7be
00000040: 1810 22bd 83f3 6e3e 68da 443e 13c2 463e
00000050: da74 9d3a 4359 f93d 488a 6f3d 47fa a6be
00000060: 0fe5 113d ebdb 5d3d 2104 093e 457c 32be
00000070: eace 85bd 6cf2 4abd 53fb 7c3b 6cf4 31be

conv3.weight f4 [32, 32, 3, 3]
-0.88788444 -1.8128356 -3.0536819 -1.8192853 -2.0025513 -2.4042203 -1.0581404 -1.7100382
-0.4448769 -0.10414913 0.7595035 1.2788664 0.14326294 0.15391189 1.5466913 -1.0621051
-1.4633574 -1.6297928 -0.8150272 0.81357366 -0.7783884 -0.4197641 0.8631543 0.99576735
0.9946123 -1.4102919 -2.537964 1.095007 -0.55140895 -0.6917309 -0.1025406 -0.722736
-2.0404346 -0.6995945 -0.18329431 -0.89973307 0.4234791 -0.76541215 1.5685769 -0.11006681
0.3647037 0.59979695 -0.9002859 -0.17770562 -0.4637092 -0.4670788 -1.246532 0.33514115
0.6781526 -0.104490004 -0.5534822 -0.33509842 -1.6246916 -1.5870218 0.6094278 1.2417138
-1.9271083 0.68778336 0.7409107 -0.68646663 0.6003194 -0.92828596 -0.2948163 -0.7396804
-0.22614472 -1.65596 -0.30572584 1.1546377 -0.11288626 0.2871028 1.5611628 -0.3385843
-0.50517297 0.45124108 -0.91005045 -0.057393577 0.2186632 -0.23159362 -1.2658055 -0.35110354
0.2288571 -0.8564078 1.1638004 1.4059973 0.1436272 0.6350753 1.2661741 0.5040944
-0.5005142 -1.4185278 -0.21919367 -0.489802 0.065910414 0.451805 -0.6497255 -0.11350049
0.3705506 0.21917999 -0.040986255 -0.4718308 1.8810507 0.49064243 -1.6624439 0.27335644
0.53903157 -0.096759595 1.0575037 0.36169168 0.73845536 0.049997542 -1.2294943 0.6877715
0.61434907 -0.71129113 -0.7121942 0.4319576 -0.91937816 0.87306786 1.1169394 -1.247067
0.37441835 0.25329334 -1.6324223 -0.72624165 -2.8807092 -1.8536912 -1.987563 1.1892447
-2.0253797 0.027404489 1.2452363 -0.44254598 0.7209925 0.6833381 0.5275141 0.6510187
0.8056388 1.0617287 1.412778 0.63936436 1.3852403 1.0916605 1.4922154 0.3034158
0.11332478 1.2748007 -0.14887643 -1.2956278 -1.8644823 -1.0980974 -1.3192704 -1.936505
-1.2082285 -0.7130748 -0.4013798 -1.0324091 -1.1076776 -0.8525443 -1.1901294 -0.5284527
0.9804607 0.40191475 0.22206153 -2.222502 -0.40857694 -0.73053855 -2.2122095 0.62573373
-1.5748626 -0.8419757 1.4090837 0.24528442 0.9999589 -1.5179031 0.052390933 1.294855
0.5457041 -0.2708842 -1.3476535 -0.4613925 -0.4751141 0.64977896 0.90514433 -0.94430697
0.36199713 -1.0148189 -0.99705523 0.39761567 -3.1474853 -2.3109546 -1.3140547 -0.50611675
-2.2282424 0.6459212 -1.0498943 -1.962031 -0.027216367 -1.190463 -1.5121722 -0.77226764
0.7852321 1.3930588 0.568451 1.027544 0.30123135 0.8191261 0.4815639 1.2281041
0.9767431 -0.39711216 -0.9583559 0.15231606 1.0569233 0.63025385 -0.88385385 0.6961605
0.65996885 -0.08465505 -0.6701756 0.51041347 0.16907972 -0.1391425 -0.46819153 -0.017429203
-0.9784295 -1.7207084 -0.083666 -2.0900483 -2.715041 -0.38127553 -1.4062839 0.24909881
0.6707912 -0.21681385 1.1743755 -1.5047741 0.8883381 0.27648872 -1.0290421 1.294891
-0.42216268 0.45003614 0.37455863 -0.42718434 0.1781517 0.8094946 0.47802034 0.029151645
-0.24055599 0.36088905 0.48823786 -1.4971611 1.1938746 0.41113648 0.50894237 -0.14487053
00000000: 654c 63bf ff0a e8bf 866f 43c0 57de e8bf
00000010: cd29 00c0 bfde 19c0 2571 87bf 88e2 dabf
00000020: e8c6 e3be 244c d5bd d26e 423f e5b1 a33f
00000030: 85b3 123e 149b 1d3e fbf9 c53f 0ff3 87bf
00000040: 4c4f bbbf 0d9d d0bf 9fa5 50bf 5d46 503f
00000050: 7644 47bf 52eb d6be aef7 5c3f 9cea 7e3f
00000060: e99e 7e3f 7284 b4bf 016e 22c0 3029 8c3f
00000070: 2329 0dbf 4715 31bf ce00 d2bd 3a05 39bf
00000080: 7b96 02c0 a018 33bf 81b1 3bbe e854 66bf
00000090: 41d2 d83e 0df2 43bf 21c7 c83f b56a e1bd
000000a0: 72ba ba3e 4b8c 193f 2379 66bf 76f8 35be
000000b0: 4b6b edbe f424 efbe 5c8e 9fbf 9f97 ab3e
000000c0: 699b 2d3f dbfe d5bd 02b1 0dbf 0592 abbe
000000d0: e5f5 cfbf 8823 cbbf 7603 1c3f 7af0 9e3f
000000e0: 7cab f6bf 9212 303f 53ac 3d3f 47bc 2fbf
000000f0: 88ae 193f 26a4 6dbf 29f2 96be b25b 3dbf
00000100: 7b92 67be 7ff6 d3bf 1988 9cbe 2bcb 933f
00000110: e930 e7bd 23ff 923e 2fd4 c73f ec5a adbe
00000120: 0453 01bf 1209 e73e 11f9 68bf 8715 6bbd
00000130: 3fe9 5f3e e126 6dbe ea05 a2bf d8c3 b3be
00000140: 8459 6a3e 8b3d 5bbf 69f7 943f b8f7 b33f
00000150: 0213 133e 4b94 223f fe11 a23f 550c 013f
00000160: b321 00bf 5292 b5bf 4e74 60be 54c7 fabe
00000170: 0afc 863d fc52 e73e 6954 26bf f272 e8bd
00000180: cfb8 bd3e b870 603e 34e1 27bd ce93 f1be
00000190: 45c6 f03f 7c35 fb3e f6ca d4bf 60f5 8b3e
000001a0: f9fd 093f e529 c6bd 485c 873f a72f b93e
000001b0: 690b 3d3f 39ca 4c3d 1260 9dbf cb11 303f
000001c0: fb45 1d3f 2d17 36bf 5c52 36bf 8c29 dd3e
000001d0: 5e5c 6bbf 6081 5f3f dff7 8e3f e49f 9fbf
000001e0: c3b3 bf3e aaaf 813e 37f3 d0bf f9ea 39bf
000001f0: 8a5d 38c0 c145 edbf 7768 febf 2c39 983f
00000200: d29f 01c0 617f e03c e763 9f3f 6395 e2be
00000210: f792 383f 3fef 2e3f 2a0b 073f 29a9 263f
00000220: 583e 4e3f bae6 873f e9d5 b43f 62ad 233f
00000230: 8e4f b13f 88bb 8b3f ea00 bf3f 5159 9b3e
00000240: d216 e83d ab2c a33f 1073 18be 22d7 a5bf
00000250: 5ba7 eebf 758e 8cbf dadd a8bf 65df f7bf
00000260: 3ba7 9abf 128c 36bf a781 cdbe fb25 84bf
00000270: 61c8 8dbf 5840 5abf 2956 98bf ad48 07bf
00000280: 79ff 7a3f c5c7 cd3e 1964 633e 793d 0ec0
00000290: ff30 d1be 9304 3bbf d794 0dc0 1630 203f
000002a0: 1995 c9bf b88b 57bf db5c b43f d72b 7b3e
000002b0: 4efd 7f3f a64a c2bf e097 563d cfbd a53f
000002c0: 44b3 0b3f 55b1 8abe e97f acbf a33b ecbe
000002d0: 2842 f3be ea57 263f 8ab7 673f 1abe 71bf
000002e0: b057 b93e 96e5 81bf 033f 7fbf 4894 cb3e
000002f0: 6670 49c0 aee6 13c0 f232 a8bf de90 01bf
00000300: 869b 0ec0 175b 253f f062 86bf d523 fbbf
00000310: dcf4 debc 1761 98bf dc8e c1bf 55b3 45bf
00000320: f904 493f c04f b23f 0186 113f 9086 833f
00000330: ff3a 9a3e 40b2 513f 8b8f f63e 8432 9d3f
00000340: d60b 7a3f 4952 cbbe d056 75bf bef8 1b3e
00000350: 4349 873f 5158 213f 3f44 62bf 9337 323f
00000360: b8f3 283f a05f adbd a190 2bbf 75aa 023f
00000370: 3c23 2d3e 5f7b 0ebe cdb6 efbe b0c7 8ebc
00000380: 5b7a 7abf 2c40 dcbf 1459 abbd 5ac3 05c0
00000390: 3bc3 2dc0 8c36 c3be 1c01 b4bf c213 7f3e
000003a0: f9b8 2b3f 7304 5ebe f051 963f 709c c0bf
000003b0: 206a 633f ee8f 8d3e a7b7 83bf fdbe a53f
000003c0: b525 d8be 236b e63e 26c6 bf3e e8b7 dabe
000003d0: 666d 363e 0a3b 4f3f 15bf f43e 6ecf ee3c
000003e0: 4f54 76be 73c6 b83e 50fa f93e faa2 bfbf
000003f0: e2d0 983f 7b80 d23e 0c4a 023f f158 14be

conv3.bias f4 [32]
-0.09834961 0.13795827 -0.30008167 -0.00782291 -0.11402912 0.07784706 -0.14439566 0.03678622
-0.03790161 -0.094468504 0.16125003 0.027635213 0.002907149 -0.06993651 -0.15172477 -0.1109946
-0.33655214 -0.078030914 -0.06579002 -0.17869495 -0.228353 -0.29772595 -0.10733508 0.018154198
0.058745995 0.14836147 -0.16710244 0.017858718 -0.13873354 -0.07540396 -0.01975066 -0.09075059
00000000: 856b c9bd ef44 0d3e 4ea4 99be aa2b 00bc
00000010: 1988 e9bd 486e 9f3d 75dc 13be 26ad 163d
00000020: b83e 1bbd b478 c1bd ba1e 253e 3e63 e23c
00000030: de85 3e3b df3a 8fbd bd5d 1bbe 2351 e3bd
00000040: 9050 acbe acce 9fbd ebbc 86bd cffb 36be
00000050: 5ed5 69be 896f 98be 7fd2 dbbd 1db8 943c
00000060: a49f 703d 12ec 173e e71c 2bbe 724c 923c
00000070: 2a10 0ebe 646d 9abd 23cc a1bc 72db b9bd

bn1.weight f4 [32]
1.048051 1.0231491 1.1648946 1.971171 0.7124889 0.70633817 0.8834472 2.155256
1.6346349 2.174075 1.3680729 1.2238117 2.1332436 1.1464736 1.105339 2.3660161
1.9205974 1.2760997 1.384855 1.3332553 0.79699 1.5604179 2.0737946 1.9215506
1.0230962 0.9651998 1.2241921 0.7813377 2.1828651 1.2827351 0.7914948 1.0006891
00000000: 8926 863f 8df6 823f 441b 953f 554f fc3f
00000010: ac65 363f 94d2 343f 9829 623f b7ef 0940
00000020: b73b d13f 0b24 0b40 031d af3f dda5 9c3f
00000030: 1087 0840 a6bf 923f c07b 8d3f cf6c 1740
00000040: 23d6 f53f 3c57 a33f ee42 b13f 1ca8 aa3f
00000050: 8907 4c3f c6bb c73f 0db9 0440 5ff5 f53f
00000060: d1f4 823f 5617 773f 54b2 9c3f bf05 483f
00000070: 10b4 0b40 aa30 a43f 679f 4a3f 9516 803f

bn1.bias f4 [32]
0.1507575 -0.02773696 -0.51429456 -1.2766753 0.017076066 -0.43336833 0.3165618 -1.3215374
-0.9259614 -0.2970825 -1.9918507 -0.047447793 -1.4043083 -0.4329544 -0.15313573 -1.3565785
-1.4097097 -0.12005445 0.2413493 -1.0698293 -0.1058832 -0.16649716 -1.2168671 0.22785218
-1.0918413 -0.21790314 -1.1670324 0.12045782 -1.3371798 -1.6616771 0.32769895 -0.72410923
00000000: 2d60 1a3e 9f38 e3bc cfa8 03bf 196a a3bf
00000010: 1be3 8b3c 74e2 ddbe 6314 a23e 2328 a9bf
00000020: ce0b 6dbf 331b 98be f7f4 febf 9e58 42bd
00000030: 60c0 b3bf 33ac ddbe 9dcf 1cbe 5da4 adbf
00000040: 5e71 b4bf 1cdf f5bd 4524 773e 2bf0 88bf
00000050: 4bd9 d8bd 3b7e 2abe 4dc2 9bbf 1552 693e
00000060: 75c1 8bbf 0022 5fbe 5161 95bf 97b2 f63d
00000070: b528 abbf d6b1 d4bf 28c8 a73e 395f 39bf

bn1.running_mean f4 [32]
-0.36214766 -0.06057348 0.044024374 14.5052 2.5595233 -3.1766913 0.17233928 3.343081
3.0785441 -1.1017046 -1.8667837 -0.45066455 11.966904 -0.09894965 -0.7200576 8.786337
3.3884196 0.11706968 0.24787456 -0.6437724 0.541117 -0.046974428 5.5225782 -0.45804265
-7.1745777 -0.5734426 0.44557455 -0.46924597 7.073654 -0.820752 0.16713428 0.15440571
00000000: 6b6b b9be e61b 78bd e752 343d 4d15 6841
00000010: 3bcf 2340 e94e 4bc0 b579 303e 0af5 5540
00000020: de06 4540 a804 8dbf c5f2 eebf 81bd e6be
00000030: 7078 3f41 1da6 cabd b255 38bf d694 0c41
00000040: dedb 5840 3ac2 ef3d d4d2 7d3e 45ce 24bf
00000050: a586 0a3f 4268 40bd f6b8 b040 9184 eabe
00000060: 2496 e5c0 22cd 12bf 5922 e43e 0241 f0be
00000070: 605b e240 ce1c 52bf 4025 2b3e 881c 1e3e

bn1.running_var f4 [32]
27.185219 3.076079 19.79474 515.7914 42.411133 45.443424 10.594021 46.7138
46.63859 9.096505 21.918736 24.141392 387.8328 2.6704786 11.491358 226.63377
35.755833 10.462488 27.736124 6.5519834 3.1764915 5.950489 115.78124 9.507747
172.88046 19.475063 5.680592 9.291428 140.60016 11.338309 20.834059 20.247576
00000000: 547b d941 7ade 4440 a15b 9e41 a6f2 0044
00000010: 00a5 2942 11c6 3542 1c81 2941 eeda 3a42
00000020: eb8d 3a42 498b 1141 9259 af41 9221 c141
00000030: 99ea c143 1fe9 2a40 9adc 3741 3fa2 6243
00000040: f905 0f42 5a66 2741 95e3 dd41 d9a9 d140
00000050: a34b 4b40 686a be40 ff8f e742 bb1f 1841
00000060: 66e1 2c43 eecc 9b41 69c7 b540 b0a9 1441
00000070: a499 0c43 b769 3541 27ac a641 09fb a141

bn2.weight f4 [32]
1.2287673 0.82610476 1.3557657 2.2058349 1.4823496 1.7509204 0.82258654 1.252492
1.1631547 2.4396563 1.4146931 1.0394244 1.7610484 1.1285329 1.2242413 2.2463737
2.2426167 1.1486264 2.0045393 2.0149171 1.4143378 1.165129 1.1082705 1.2569858
1.1589383 1.6668313 1.406327 1.7592311 0.94075674 0.8334871 1.6056379 1.5835273
00000000: 3f48 9d3f 9a7b 533f bb89 ad3f 662c 0d40
00000010: a2bd bd3f 291e e03f 0895 523f a851 a03f
00000020: 41e2 943f 5423 1c40 aa14 b53f dc0b 853f
00000030: 096a e13f c473 903f f0b3 9c3f 96c4 0f40
00000040: 0887 0f40 3106 933f 5f4a 0040 67f4 0040
00000050: 0509 b53f f222 953f cfdb 8d3f e9e4 a03f
00000060: 1758 943f ba5a d53f 8602 b43f 7c2e e13f
00000070: 6fd5 703f 695f 553f 8b85 cd3f 06b1 ca3f

bn2.bias f4 [32]
-0.6471251 -0.43837616 -0.6734336 -0.94009006 -0.97340035 -0.90220886 -0.87971425 -0.8271489
-0.5249517 -1.1123432 -0.78467864 -0.2408758 -1.0416149 -0.5730252 -0.6267628 -1.3436459
-1.2053251 -0.66365564 -1.113898 -0.97881365 -0.69324857 -0.8734959 -0.72227097 -0.67708814
-0.6158607 -0.9726057 -1.0735716 -0.8830745 -0.3250539 -0.6317818 -0.9654651 -0.8820507
00000000: fea9 25bf d772 e0be 2566 2cbf bea9 70bf
00000010: c430 79bf 29f7 66bf f434 61bf 08c0 53bf
00000020: 3c63 06bf 4361 8ebf b3e0 48bf 25a8 76be
00000030: a353 85bf c8b1 12bf 8773 20bf 97fc abbf
00000040: 1848 9abf 56e5 29bf 3694 8ebf 8893 7abf
00000050: bd78 31bf 6d9d 5fbf c0e6 38bf a655 2dbf
00000060: 0ca9 1dbf b0fc 78bf cb6a 89bf 2c11 62bf
00000070: 776d a6be 74bc 21bf b928 77bf 13ce 61bf

bn2.running_mean f4 [32]
-10.264738 -3.395745 -11.807165 -21.15855 -7.7312 -25.050053 -3.5397677 -8.553919
-12.290971 -19.494316 11.73577 -6.9107213 -9.554429 -5.388013 -7.8385468 -7.0546
-14.458795 -21.11136 -15.896227 -19.214943 -13.364551 -8.129578 -10.911433 -9.681863
3.6650236 -11.124218 -7.964107 -10.703896 -2.498095 -10.48703 -2.2355506 -14.582377
00000000: 5e3c 24c1 e353 59c0 26ea 3cc1 b644 a9c1
00000010: fe65 f7c0 8266 c8c1 8e8b 62c0 dadc 08c1
00000020: d1a7 44c1 5cf4 9bc1 b7c5 3b41 a124 ddc0
00000030: f1de 18c1 9a6a acc0 60d5 fac0 48bf e1c0
00000040: 3957 67c1 11e4 a8c1 f256 7ec1 34b8 99c1
00000050: 33d5 55c1 c012 02c1 3b95 2ec1 e9e8 1ac1
00000060: bf8f 6a40 ccfc 31c1 f7d9 fec0 2843 2bc1
00000070: cae0 1fc0 e0ca 27c1 4313 0fc0 6b51 69c1

bn2.running_var f4 [32]
223.6864 79.78506 275.50586 1021.6664 160.1374 470.69833 128.88583 149.87985
226.94026 587.0082 285.01013 400.7153 166.20006 281.86124 120.84513 161.0411
357.27313 340.76633 521.5418 514.5666 386.18097 104.512405 216.47845 234.31767
252.07986 216.0037 136.23566 274.21768 187.68695 156.81012 193.35658 296.91104
00000000: b8af 5f43 f391 9f42 c0c0 8943 a66a 7f44
00000010: 2d23 2043 6359 eb43 c6e2 0043 3ee1 1543
00000020: b5f0 6243 86c0 1244 4c81 8e43 8f5b c843
00000030: 3733 2643 3dee 8c43 b5b0 f142 860a 2143
00000040: f6a2 b243 1762 aa43 ad62 0244 43a4 0044
00000050: 2a17 c143 5a06 d142 7c7a 5843 5351 6a43
00000060: 7214 7c43 f200 5843 543c 0843 dd1b 8943
00000070: dcaf 3b43 64cf 1c43 495b 4143 9d74 9443

bn3.weight f4 [32]
0.5832934 0.49639237 0.47037005 0.7696721 0.4573548 0.38727015 0.56046164 0.5768093
0.5762118 0.46541438 0.6984971 0.42746696 0.3352801 0.50348336 0.54080653 0.50078934
0.4768759 0.38817167 0.5356589 0.43722433 0.41448718 0.45025396 0.63263035 0.38570458
0.4117122 0.5746272 0.53619826 0.56649256 0.4130793 0.44840986 0.5914262 0.4887805
00000000: b752 153f 2427 fe3e 58d4 f03e 3b09 453f
00000010: 692a ea3e 4648 c63e 6a7a 0f3f c6a9 133f
00000020: 9e82 133f cb4a ee3e b5d0 323f f3dc da3e
00000030: d5a9 ab3e 49e4 003f 4c72 0a3f bb33 003f
00000040: 1429 f43e 70be c63e f120 093f dedb df3e
00000050: aa37 d43e b087 e63e 10f4 213f 127b c53e
00000060: f1cb d23e c51a 133f 4a44 093f a805 113f
00000070: 217f d33e fa95 e53e b567 173f 7041 fa3e

bn3.bias f4 [32]
-0.6095409 -0.525077 -0.5814753 -1.4016645 -0.42390367 -0.58253604 -0.89327085 -0.52656454
-0.7133614 -0.42415845 -1.0073566 -0.60248643 -0.44703773 -0.7565822 -0.8711983 -0.43528703
-0.5614838 -0.38302246 -0.5966706 -0.5670097 -0.44992572 -0.59825534 -0.9325506 -0.31344393
-0.45476618 -0.6961489 -0.7005738 -0.7669769 -0.5306364 -0.49691942 -0.7233705 -0.81734556
00000000: df0a 1cbf 726b 06bf 91db 14bf be69 b3bf
00000010: e709 d9be 1521 15bf 66ad 64bf efcc 06bf
00000020: da9e 36bf 4c2b d9be 10f1 80bf 8d3c 1abf
00000030: 21e2 e4be 5faf 41bf da06 5fbf f1dd debe
00000040: 67bd 0fbf 851b c4be 68bf 18bf 8c27 11bf
00000050: aa5c e6be 4327 19bf a3bb 6ebf b97b a0be
00000060: 1dd7 e8be d036 32bf ce58 33bf 9958 44bf
00000070: cad7 07bf 396c febe cf2e 39bf 8f3d 51bf

bn3.running_mean f4 [32]
-9.067231 -3.3456366 -8.9949255 -10.346809 -9.490152 -7.4376736 -6.645601 -10.246102
-7.9315066 -7.475907 -8.9232645 -8.023493 -5.762204 -10.461941 -5.5182524 -10.401809
-10.881737 -7.1503735 -7.928033 -9.947329 -6.739177 -8.555661 -6.642102 -7.9415684
-7.171808 -6.8209443 -10.941306 -8.390161 -10.409518 -5.8979206 -5.8936954 -5.4598794
00000000: 6113 11c1 e91e 56c0 37eb 0fc1 888c 25c1
00000010: aad7 17c1 6c01 eec0 c3a8 d4c0 09f0 23c1
00000020: e7ce fdc0 a13a efc0 b1c5 0ec1 3a60 00c1
00000030: fa63 b8c0 1c64 27c1 8695 b0c0 cf6d 26c1
00000040: 981b 2ec1 dccf e4c0 72b2 fdc0 4228 1fc1
00000050: 57a7 d7c0 fde3 08c1 198c d4c0 5421 fec0
00000060: 737f e5c0 2d45 dac0 970f 2fc1 193e 06c1
00000070: 638d 26c1 c4bb bcc0 2799 bcc0 55b7 aec0

bn3.running_var f4 [32]
48.462345 33.080288 22.517372 21.390606 45.280792 24.314957 13.407567 48.437077
26.340473 39.09371 37.867554 24.336002 21.60806 29.460606 22.068037 64.82735
40.27102 31.353981 34.60645 25.267614 24.303349 27.26083 22.453682 50.51584
28.367443 37.522324 31.36738 23.023312 28.00256 29.582767 23.180676 19.976086
00000000: 71d9 4142 3752 0442 9423 b441 f61f ab41
00000010: 881f 3542 0885 c241 6585 5641 91bf 4142
00000020: 4ab9 d241 f65f 1c42 6078 1742 22b0 c241
00000030: 4fdd ac41 52af eb41 578b b041 9aa7 8142
00000040: 8615 2142 f4d4 fa41 016d 0a42 1324 ca41
00000050: 426d c241 2e16 da41 24a1 b341 3810 4a42
00000060: 86f0 e241 dc16 1642 65f0 fa41 be2f b841
00000070: 3e05 e041 82a9 ec41 0672 b941 06cf 9f41

fc1.weight f4 [48, 1568]
0.907163 -0.42119068 -1.0726602 -1.0499674 0.21969984 -0.35447624 0.8696124 0.21324159
1.1350245 -0.72294605 0.3240046 0.16953228 -0.32494292 0.16372569 0.27670956 -0.31668398
-0.123416856 -0.673921 0.3455285 0.6972614 -0.85704744 0.14053777 0.5543217 -0.11898861
-1.4811677 -0.32329166 -0.67110884 -1.174143 0.41159815 0.042886276 0.16970935 -1.2431904
0.54078066 0.19984867 -0.17338558 0.21718061 -0.02992078 -0.4352275 -0.10064723 -0.010537215
0.19212781 -0.0208486 -0.07864976 -0.049115974 0.23832373 -0.21483706 0.12908195 0.41849032
-0.53689665 0.78042746 -0.22054005 0.0046484116 -0.94635713 -0.52698284 -0.097598776 -0.26251438
0.661809 0.31463325 -0.3382324 0.19146886 0.21856333 0.3936506 0.5348767 0.02822231
0.110050865 -0.16813098 0.89647394 -0.25068897 -0.50407255 0.067136854 0.09322403 -0.30041763
0.37734854 0.00694944 0.27311212 -0.15711996 -0.13040736 0.4384551 0.016186427 -0.37345165
-0.029081548 0.17844962 0.128849 -0.09050335 0.28783214 -0.5343261 0.29996294 -0.3957957
-0.08149593 0.010720205 -0.37521395 -0.7656781 -0.41546413 -0.23434804 -0.0572443 0.38124958
0.73666793 0.7132851 -1.3147813 0.07611794 0.58918744 -0.2108803 -0.46995258 0.23396291
0.02200491 -0.56711197 -0.097743414 -0.2577432 -0.08168468 -0.095805936 -0.48410445 -0.42167175
-0.24944566 0.45358905 -0.37284443 0.30106694 0.21857886 0.060155317 0.2706665 0.40520993
0.019747749 -0.35567492 -0.05805533 0.108666 0.6041303 -0.3018855 1.1454623 -0.8541683
0.14510769 -0.6191586 0.3225419 -0.33456695 0.14104563 -0.58481294 -1.1386908 -0.2674392
-0.2463933 0.56379545 0.10055523 0.12410353 0.23115593 -1.4796215 -0.18637866 -0.06734191
0.06296157 0.024726914 0.44297856 -1.2462199 -1.8105928 -0.12262132 -0.088791095 0.005778562
0.5701096 -0.7630169 -0.33158377 -0.8054836 -0.30271602 -0.33031148 -0.21153119 -0.22179784
-1.0910661 0.10331882 0.7466733 1.0966524 0.37571165 -0.7431888 0.698357 -0.310891
0.40828708 0.46883193 0.39523798 0.34422034 -0.19487225 0.76245725 0.04588876 -0.44769952
0.60864043 -0.24467525 0.4797486 0.36715832 -0.29651123 -0.034572024 1.1925534 -0.01732782
-0.14873526 1.5832987 0.72013867 0.43021724 -0.36325532 0.024827842 0.27380425 -0.4162039
0.36123005 0.07692544 0.017419439 0.27572626 0.5192522 -0.32347238 -0.6706564 0.37298295
0.4909878 -0.20726514 -0.531299 0.41578165 -0.1824238 -0.25113013 0.86259955 0.2890687
-0.7529762 -1.0006956 0.6358244 -0.36280832 -0.36755967 -0.19869635 -0.35234454 -0.31327742
-0.61933416 0.5520176 -0.22291991 -0.4751706 0.20081228 0.64241636 -0.574749 -0.6549215
0.51960367 0.35024917 0.25193417 -0.3069563 0.35115454 -0.3701308 -0.0696179 -0.36683604
-0.24470094 0.2783682 0.4838666 -0.59105796 -0.14394575 -0.19065881 0.1731987 -0.62994796
-0.5632331 0.050093967 0.27718785 -0.40025917 -0.6261138 2.0368512 2.8529358 1.1032448
0.4649063 0.110072136 0.35547596 0.6511992 -0.40695614 1.2898557 0.92592263 0.7639748
00000000: d63b 683f 4ea6 d7be ee4c 89bf 5565 86bf
00000010: fff8 603e e97d b5be eb9e 5e3f 015c 5a3e
00000020: 7c48 913f fe12 39bf eee3 a53e df99 2d3e
00000030: eb5e a6be b5a7 273e e0ac 8d3e 6724 a2be
00000040: fac1 fcbd 1686 2cbf 1de9 b03e b97f 323f
00000050: 7667 5bbf 22e9 0f3e 07e8 0d3f 4db0 f3bd
00000060: e796 bdbf 7c86 a5be cacd 2bbf 514a 96bf
00000070: febc d23e 85a9 2f3d 4ac8 2d3e dd20 9fbf
00000080: 9a70 0a3f 21a5 4c3e fd8b 31be 9864 5e3e
00000090: 6c1c f5bc 24d6 debe 2320 cebd 48a4 2cbc
000000a0: 27bd 443e afca aabc 2013 a1bd d52d 49bd
000000b0: 230b 743e 3ffe 5bbe 0f2e 043e 5d44 d63e
000000c0: 0f72 09bf 18ca 473f 40d5 61be b451 983b
000000d0: 7644 72bf 59e8 06bf dee1 c7bd 4968 86be
000000e0: 516c 293f 9c17 a13e cc2c adbe 6a10 443e
000000f0: 11cf 5f3e 928c c93e aeed 083f 7932 e73c
00000100: 5962 e13d 872a 2cbe 517f 653f 4e5a 80be
00000110: e60a 01bf 0c7f 893d 3eec be3d 57d0 99be
00000120: d433 c13e 21b8 e33b 5ad5 8b3e 0ee4 20be
00000130: 8289 05be 307d e03e 6699 843c 0e35 bfbe
00000140: 6d3c eebc 7fbb 363e fef0 033e d259 b9bd
00000150: bc5e 933e 98c9 08bf be94 993e bca5 cabe
00000160: 57e7 a6bd cca3 2f3c 0b1c c0be 7b03 44bf
00000170: b7b7 d4be eff8 6fbe 0079 6abd 2533 c33e
00000180: 4596 3c3f da99 363f c14a a8bf b9e3 9b3d
00000190: fdd4 163f 01f1 57be a09d f0be f993 6f3e
000001a0: a443 b43c 402e 11bf b32d c8bd ebf6 83be
000001b0: 4c4a a7bd e735 c4bd 8adc f7be 5ce5 d7be
000001c0: af6e 7fbe d33c e83e 77e5 bebe 7225 9a3e
000001d0: 23d3 5f3e 6c65 763d cd94 8a3e ad77 cf3e
000001e0: 08c6 a13c 061b b6be 6dcb 6dbd 488c de3d
000001f0: 49a8 1a3f bc90 9abe 829e 923f c6aa 5abf
00000200: 1c97 143e 2e81 1ebf 3624 a53e 5c4c abbe
00000210: 446e 103e 4db6 15bf 9fc0 91bf caed 88be
00000220: 864e 7cbe e654 103f e7ef cd3d fe29 fe3d
00000230: 24b4 6c3e 3d64 bdbf 0cda 3ebe 8eea 89bd
00000240: fff1 803d 1990 ca3c 16ce e23e 2284 9fbf
00000250: 81c1 e7bf e320 fbbd 1bd8 b5bd 175a bd3b
00000260: b4f2 113f 1355 43bf 59c5 a9be 2c34 4ebf
00000270: 98fd 9abe 961e a9be a29b 58be f91e 63be
00000280: 0ea8 8bbf d198 d33d fb25 3f3f 1b5f 8c3f
00000290: 475d c03e 9f41 3ebf 86c7 323f 1b2d 9fbe
000002a0: 010b d13e bd0a f03e a25c ca3e a63d b03e
000002b0: 978c 47be 6630 433f daf5 3b3d df38 e5be
000002c0: dccf 1b3f 268c 7abe 9ca1 f53e 2dfc bb3e
000002d0: 52d0 97be 659b 0dbd 97a5 983f 13f3 8dbc
000002e0: 0e4e 18be 88a9 ca3f 025b 383f 6f45 dc3e
000002f0: 9afc b9be c263 cb3c 1230 8c3e ad18 d5be
00000300: 25f3 b83e 168b 9d3d 36b3 8e3c fe2b 8d3e
00000310: b6ed 043f 2c9e a5be 23b0 2bbf 9ff7 be3e
00000320: c162 fb3e 503d 54be 3603 08bf 55e1 d43e
00000330: 4ecd 3abe 2194 80be 53d3 5c3f d000 943e
00000340: 0cc3 40bf cb16 80bf 63c5 223f 03c2 b9be
00000350: c830 bcbe 0e77 4bbe 8166 b4be e665 a0be
00000360: af8c 1ebf 0751 0d3f 1e45 64be 9049 f3be
00000370: bca1 4d3e 6675 243f c022 13bf efa8 27bf
00000380: bf04 053f dc53 b33e 84fd 803e 6029 9dbe
00000390: 87ca b33e c981 bdbe d493 8ebd efd1 bbbe
000003a0: e292 7abe 4786 8e3e 5dbd f73e 934f 17bf
000003b0: 8466 13be 103c 43be 005b 313e 4544 21bf
000003c0: 0b30 10bf 552f 4d3d 91eb 8d3e c5ee ccbe
000003d0: fe48 20bf c55b 0240 8096 3640 2037 8d3f
000003e0: 3308 ee3e 806d e13d f200 b63e feb4 263f
000003f0: 8e5c d0be fe19 a53f 4409 6d3f da93 433f

fc1.bias f4 [48]
-0.41861442 -0.18861757 0.22335257 -0.07161097 -0.12817122 -0.029555462 -0.035926204 -1.0538918
0.01680211 -0.068739176 -0.18608385 -0.4413726 0.11392694 -0.14652671 -0.031400554 0.31700101
0.17054929 0.7837796 0.63936037 -0.046159707 0.10495727 0.03152364 0.04583078 0.24150842
1.1904614 0.2679934 -0.40220731 -0.19058439 0.23629354 0.9712657 -0.09183592 0.3917552
0.28392142 0.18550809 -0.28187597 0.11769997 -0.28068402 -0.085788704 0.37876856 -0.36052334
-0.18731192 -0.17308526 -0.105315976 -0.31042406 0.5026451 -0.1830594 0.06364501 0.35780704
00000000: a154 d6be f724 41be 89b6 643e c6a8 92bd
00000010: 513f 03be 4c1e f2bc 5b27 13bd ede5 86bf
00000020: 94a4 893c 20c7 8cbd c48c 3ebe 97fb e1be
00000030: 8752 e93d 190b 16be de9d 00bd f54d a23e
00000040: 79a4 2e3e c8a5 483f 1fad 233f f611 3dbd
00000050: d6f3 d63d ef1e 013d 0eb9 3b3d fc4d 773e
00000060: 0a61 983f 6e36 893e 1eee cdbe 8e28 43be
00000070: eff6 713e dea4 783f 7914 bcbd 2394 c83e
00000080: 265e 913e d5f5 3d3e 0c52 90be af0c f13d
00000090: d1b5 8fbe fdb1 afbd f4ed c13e 8496 b8be
000000a0: b2ce 3fbe 433d 31be e7af d7bd e7ef 9ebe
000000b0: 59ad 003f ec73 3bbe 5158 823d 7c32 b73e

fc2.weight f4 [10, 48]
-0.017065391 -0.0018180355 -0.017430387 0.05728599 -0.09681327 -0.04035451 0.02285562 -0.007947246
0.0053885197 0.11652518 -0.025479015 0.049512725 0.00065228244 0.015307033 0.07292185 0.015061051
-0.0008420913 -0.20622772 -0.18435937 0.03268351 -0.037975814 0.0055273282 0.0252355 -0.020567074
0.7308726 -0.03760271 0.22485854 0.011371708 -0.009753158 0.059076715 -0.031273242 0.08107963
0.02648807 -0.032449584 -0.05905738 0.01422962 0.0046798694 0.0010871257 -0.0035745911 -0.02960492
0.0001407591 0.018944336 -0.0421937 -0.32384688 0.017152209 0.0016573693 -0.013846085 -0.034826376
-0.050624236 -0.002642345 -0.01900335 0.014015447 0.1515945 -0.03687711 0.01109793 0.36925334
0.006167373 0.6075322 -0.029251663 0.06549456 0.026412481 0.01192268 0.15241818 0.006191381
-0.012182792 0.013762909 0.29833755 0.0244956 -0.05430734 0.007295668 0.03991012 -0.016305469
-0.22001855 -0.046436798 0.20564918 0.00054009864 -0.013163777 0.057165235 -0.010729333 0.38373145
0.037720155 -0.032790814 -0.055661965 -0.017149145 0.011266275 0.0012186203 -0.0055460404 -0.009371279
0.007884061 0.024694027 -0.008148448 0.019081097 0.010783667 0.0048035774 0.013593368 -0.028424203
-0.028729305 0.022355532 -0.012616088 0.04111126 -0.082917556 -0.041285403 0.005364849 -0.0494257
-0.21352784 -0.013995281 -0.03867664 0.06648432 0.016206766 0.0077102566 0.05703737 0.011433807
-0.007156035 -0.19412604 0.22819537 -0.0058465144 -0.062824346 0.0083616795 0.020983418 0.0070209946
0.0010148532 -0.03506856 -0.54302675 -0.008654351 -0.0021336777 0.075145446 0.0039753346 0.051599797
0.021131312 -0.0318281 -0.04028412 -0.020266548 -0.017658096 -0.0044889604 -0.0151275685 -0.005914361
-0.018622724 0.00017087904 -0.017043587 -0.31110355 -0.008323487 0.0031075645 0.005351576 -0.028934829
-0.034085754 0.003134377 -0.021135138 0.022655785 -0.17287669 -0.034674298 0.009470493 -0.20929757
0.25861657 0.36320814 -0.046197634 0.07136225 0.0017662277 0.00884664 0.051901087 0.028694235
-0.0103209345 -0.17810184 -0.2610137 0.019203028 -0.058166124 0.0014923579 -0.011612334 -0.00511531
-0.26853102 -0.037534483 -0.031769235 0.014986799 -0.0061079734 0.036974285 -0.0014734332 0.1396524
0.048527084 -0.021670923 -0.05261616 0.0072026844 0.0020614148 0.019960053 -0.021933272 -0.026302282
0.0008470156 0.038388815 -0.016938996 0.09368032 -0.022560377 -0.012624709 0.003908261 -0.008966233
-0.04134104 0.01672331 -0.022464875 0.024134597 0.060501873 -0.04412644 0.007586143 -0.14429091
0.34749 -0.33566555 -0.031151766 0.07279122 -0.0073393416 0.017639522 0.07821642 0.008152749
0.011713181 0.1161919 0.21868408 0.016198998 -0.041880213 0.02044875 0.031530924 -0.03550247
-0.0061445246 -0.019172573 -0.077942535 0.038061853 0.007511685 0.08947327 -0.037140395 0.27665785
0.06800963 -0.0052754297 -0.050853 0.017253883 -0.010065622 0.01617444 0.020162987 -0.02049582
-0.0029689914 0.020438004 -0.018948711 0.083916634 -0.022111135 0.021699198 0.010341556 -0.012726408
-0.019461295 0.0129704885 -0.018115966 0.027145235 0.6046582 -0.02830502 -0.0009182914 0.10652286
-0.18528691 0.17251712 -0.040193446 0.061231263 0.0039060938 0.009431338 0.21187638 0.008735691
00000000: b8cc 8bbc 264b eeba 2cca 8ebc b7a4 6a3d
00000010: 0946 c6bd c54a 25bd b63b bb3c 2a35 02bc
00000020: 2e92 b03b c1a4 ee3d 5eb9 d0bc dbcd 4a3d
00000030: effd 2a3a 5aca 7a3c 0d58 953d a0c2 763c
00000040: cabf 5cba 5c2d 53be b4c8 3cbe 25df 053d
00000050: 878c 1bbd 971e b53b aeba ce3c 487c a8bc
00000060: 771a 3b3f 4d05 1abd 5141 663e 6650 3a3c
00000070: b6cb 1fbc 6dfa 713d 5f18 00bd 140d a63d
00000080: 82fd d83c dbe9 04bd 27e6 71bd 5a23 693c
00000090: 9759 993b e37d 8e3a b043 6abb 0486 f2bc
000000a0: bc98 1339 2731 9b3c 4dd3 2cbd 42cf a5be
000000b0: ca82 8c3c 163c d93a b1da 62bc 1aa6 0ebd
000000c0: 5c5b 4fbd 312b 2dbb eaac 9bbc 0ca1 653c
000000d0: 973b 1b3e 740c 17bd 18d4 353c c60e bd3e
000000e0: ad17 ca3b 3b87 1b3f 2fa1 efbc 0322 863d
000000f0: fd5e d83c 5857 433c 8313 1c3e 11e1 ca3b
00000100: 559a 47bc d37d 613c b3bf 983e ffaa c83c
00000110: 6071 5ebd 8010 ef3b cb78 233d 0c93 85bc
00000120: 8b4c 61be 8334 3ebd b395 523e 6895 0d3a
00000130: e2ac 57bc 1826 6a3d 16ca 2fbc 7378 c43e
00000140: 7380 1a3d a94f 06bd cdfd 63bd 5d7c 8cbc
00000150: 2f96 383c 1dba 9f3a 8fbb b5bb fe89 19bc
00000160: 262c 013c 214b ca3c 1181 05bc f64f 9c3c
00000170: faad 303c 5467 9d3b b8b6 5e3c e0d9 e8bc
00000180: b859 ebbc f322 b73c b5b3 4ebc 4864 283d
00000190: aed0 a9bd e21a 29bd 9ecb af3b 9a72 4abd
000001a0: 0ba7 5abe 774c 65bc 656b 1ebd ee28 883d
000001b0: 0dc4 843c 52a6 fc3b 04a0 693d dd54 3b3c
000001c0: 2c7d eabb fac8 46be 0cac 693e 1e94 bfbb
000001d0: 0daa 80bd 6dff 083c 6be5 ab3c 5f10 e63b
000001e0: d304 853a 0da4 0fbd cd03 0bbf fbca 0dbc
000001f0: 2cd5 0bbb dbe5 993d 8643 823b 4f5a 533d
00000200: 931b ad3c 2f5e 02bd f600 25bd 0806 a6bc
00000210: b6a7 90bc 2118 93bb 9fd9 77bc 42cd c1bb
00000220: af8e 98bc fe2d 3339 fe9e 8bbc f748 9fbe
00000230: 3c5f 08bc 48a8 4b3b 465c af3b bc08 edbc
00000240: 819d 0bbd 1f6a 4d3b 9923 adbc a098 b93c
00000250: 9606 31be a306 0ebd 202a 1b3c 1a52 56be
00000260: 6469 843e 6bf6 b93e bb39 3dbd 5f26 923d
00000270: c480 e73a 7ff1 103c 3c96 543d 2c10 eb3c
00000280: 2319 29bc 5460 36be 96a3 85be ab4f 9d3c
00000290: 9a3f 6ebd 399b c33a a941 3ebc 559e a7bb
000002a0: e67c 89be c2bd 19bd 7520 02bd 318b 753c
000002b0: 6525 c8bb 5972 173d 3720 c1ba 0a01 0f3e
000002c0: 56c4 463d 3887 b1bc 0b84 57bd 7f04 ec3b
000002d0: cd18 073b 4483 a33c 68ad b3bc e277 d7bc
000002e0: 410a 5e3a 973d 1d3d a6c3 8abc 78db bf3d
000002f0: 8ad0 b8bc ded7 4ebc df10 803b 1be7 12bc
00000300: 3955 29bd 53ff 883c 4208 b8bc ebb5 c53c
00000310: d0d0 773d edbd 34bd 2e95 f83b ffc0 13be
00000320: 36ea b13e 5bdc abbe fd31 ffbc 9013 953d
00000330: dc7e f0bb c280 903c ee2f a03d 1c93 053c
00000340: a4e8 3f3c 05f6 ed3d b8ee 5f3e c3b3 843c
00000350: 968a 2bbd 2384 a73c 9226 013d 0a6b 11bd
00000360: 0258 c9bb cd0f 9dbc 56a0 9fbd bfe6 1b3d
00000370: 9524 f63b c33d b73d 8720 18bd 19a6 8d3e
00000380: a248 8b3d 83dd acbb 3c4b 50bd 0458 8d3c
00000390: 47ea 24bc 4280 843c d92c a53c dae6 a7bc
000003a0: 6993 42bb 9a6d a73c 543a 9bbc 7cdc ab3d
000003b0: 6922 b5bc 84c2 b13c a16f 293c 6d82 50bc
000003c0: 4b6d 9fbc 2c82 543c ef67 94bc af5f de3c
000003d0: e1ca 1a3f eedf e7bc 7eb9 70ba a828 da3d
000003e0: dabb 3dbe 54a8 303e e2a1 24bd a2cd 7a3d
000003f0: 61fd 7f3b e685 1a3c 1ff6 583e 2520 0f3c

fc2.bias f4 [10]
-0.7796175 -0.17765225 -0.07854229 0.41514233 0.03372339 -0.41976383 0.9888441 -0.6741332
-0.35153285 -0.6209202
00000000: 0395 47bf 79ea 35be c8da a0bd 898d d43e
00000010: 8a21 0a3d 49eb d6be e324 7d3f fe93 2cbf
00000020: 1dfc b3be a0f4 1ebf
