Homework 02/pth_folder/3_17_8_26_9393.pth (torch, 389975 bytes, 22 tensors)

conv1.weight f4 [32, 3, 3, 3]
00000000: 510d 2ec0 7455 ca40 f674 be40 ecee adbf
00000010: c3ac 6140 e10d 4e3f bb69 c33f ad65 7a3e
00000020: 1424 183f dbbe 2cc0 919a d140 3a0f ba40
00000030: b1c3 84bf 2136 6540 a0bf 263f 44ff 9e3f
00000040: 8ef8 b23e b081 223f 8b53 38c0 2855 d640
00000050: eb61 be40 3b7d 8cbf b662 5a40 786b 2d3f
00000060: dc72 943f e441 873e 07f8 f13e a4c4 abbe
00000070: 4b43 32c0 d9f4 86c0 277c 2940 54cb 153f
00000080: 87f0 93bf dfcf 7540 b75f a53f 45cf d03e
00000090: 021b 14bf a2db 3dc0 d782 7dc0 ed43 2440
000000a0: 54c9 2c3f 54ad 57bf f1eb 6a40 cca5 ae3f
000000b0: 68a8 233f 073c 87be 970d 3cc0 1428 8ac0
000000c0: c744 2040 5548 da3e 07c6 54bf f2ef 7340
000000d0: 7486 9a3f 4da0 c23e f234 5940 77c2 4fbe
000000e0: f497 dfbd 8a14 f5bf b3cc 8a40 489d 91bf
000000f0: 2f36 5ac0 4f2f 1f40 1455 033f 8a6c 5440
00000100: 3ebf f9be daee b2bd 648b ecbf 5101 8f40
00000110: 79e0 b2bf 5c60 5bc0 5690 1c40 8c4e 093f
00000120: a68b 5640 bdb7 9fbe 5550 acbe 3eb8 e1bf
00000130: e160 9340 7c5e aabf bd64 65c0 6c24 1a40
00000140: a0fa f73e 1e74 8b3e 2cf3 9b3d 82eb f5be
00000150: f20f 82c0 c050 8c40 fe5c 52bf 926f 1ec0
00000160: ac9e 2e40 29d6 0dbf df77 5d3e 0375 513d
00000170: 3ffb 34bf dd8b 80c0 1c72 9140 0d2d 08bf
00000180: 2a99 0ec0 fe6b 4440 4f58 c8be d6c3 913e
00000190: 99dc 4dbe 7c32 f7be 3b08 7bc0 b7c5 9440
000001a0: 1110 16bf db1a 15c0 61ef 3740 642a 04bf
000001b0: cb3b 85be 4535 b03e 4bd8 22bf 2831 a3be
000001c0: 16d9 86c1 9a81 ae3e 3e6d 6c3d 4c1a 4b40
000001d0: b38b 813e a78e 48be aa54 693e 7f4d 41bf
000001e0: 7d43 d0be 2461 87c1 2aef 003f de13 773e
000001f0: b3b3 3d40 ddc8 ff3e f25c ba3d 9e13 9f3e
00000200: 45f8 48bf 0fa3 e3be bad3 87c1 fef8 953e
00000210: 8e2a 833e 0e15 5440 1e4f a13e 347a 00c1
00000220: fe15 2cc0 e247 1d3f 19f8 c3c0 c725 ba3f
00000230: 2b14 cf3f 6f17 16c0 623f 7e3f 9156 8a3f
00000240: 124b fdc0 4627 2bc0 4ebb 183f cb27 c5c0
00000250: f1da a83f eb86 c33f 7418 12c0 9e29 883f
00000260: 65a4 563f 68f8 00c1 efda 23c0 2241 2d3f
00000270: 048d c5c0 fdff af3f cc28 d23f 17f6 04c0
00000280: 7f2d 8d3f b318 893f 5f9f 4dc0 3682 ab3e
00000290: e146 3640 f8ce 63c0 97d2 a73f 1780 df3f
000002a0: 9a5e 47c0 662f 0940 9752 5e3f 8ac6 4dc0
000002b0: 667a 4e3e 633c 3440 adcf 57c0 00f4 b63f
000002c0: 7c99 e63f a05f 48c0 f3cc 0c40 043e 7d3f
000002d0: 2b7e 43c0 82f9 c43e 33ef 3040 90d2 67c0
000002e0: 0261 b43f 84b8 d13f 70c9 3dc0 99af 0340
000002f0: 35c5 4b3f 9dea 8040 b954 78c0 c7d5 cbbe
00000300: 70e7 17c0 b658 5840 c076 67bf 4487 d7bf
00000310: e319 f23e a23d 853f dbf1 8440 11cd 6ac0
00000320: 7330 81be 7e2c 16c0 10b0 6240 6861 71bf
00000330: 1895 d4bf b09a bb3e c9d6 913f 97f6 8440
00000340: fd6a 73c0 0638 d3be 8f16 08c0 1147 5040
00000350: 1835 64bf b5c6 c5bf 2a22 b23e 4604 893f
00000360: c47e b3bf a6ed aa3f 8321 9d3e 4751 a6c0
00000370: 32bf 8840 77ef 3f3f cd98 bb3f 1d78 58bf
00000380: fd88 23bf c0c7 8bbf 7d31 bf3f 47e2 933e
00000390: 1f25 a9c0 8d51 8340 c408 283f b3b8 b03f
000003a0: 7528 60bf 8484 ddbe f75e a9bf d4f5 bb3f
000003b0: 9657 ac3d 033f a9c0 9355 8740 97d5 523f
000003c0: 01f6 c63f 882a 5fbf 8a05 dfbe f20e 2f40
000003d0: a82b 17c0 13de 8ebf dfd1 413f d0fc 84c0
000003e0: cbae f53f bbe9 63c0 76a8 4cc0 bba0 94bf
000003f0: 7964 3d40 a698 17c0 88ab 8abf 8381 0f3f
-2.7195628 6.3229313 5.9517775 -1.3588538 3.5261695 0.8048993 1.5266641 0.24452849
0.5943005 -2.699149 6.550118 5.8143587 -1.037222 3.5814288 0.65136147 1.2421651
0.34955257 0.6347914 -2.880099 6.697895 5.949453 -1.0975717 3.4122748 0.6774211
1.1597552 0.26417458 0.47259542 -0.33548462 -2.7853572 -4.2173886 2.6482027 0.5851338
-1.1557778 3.8408124 1.2919835 0.40783134 -0.5785371 -2.9665303 -3.9611108 2.5666459
0.674947 -0.8424885 3.6706507 1.3644347 0.6392884 -0.26412985 -2.9383295 -4.3173923
2.5041978 0.4263331 -0.83114666 3.81152 1.2072282 0.38012925 3.3938565 -0.20289026
-0.10917655 -1.9146893 4.3374877 -1.1376123 -3.409557 2.4872625 0.51301694 3.3191247
-0.4877872 -0.087369636 -1.8480039 4.4689107 -1.3974754 -3.4277563 2.4463096 0.5363548
3.3522735 -0.3119487 -0.33655038 -1.7634351 4.605576 -1.3310084 -3.5842736 2.408473
0.484334 0.27237028 0.07614741 -0.4803124 -4.0644464 4.384857 -0.82173145 -2.4755597
2.7284346 -0.5540491 0.21627758 0.05113698 -0.7069587 -4.017073 4.5451794 -0.5319374
-2.2280984 3.0690913 -0.39129874 0.28469723 -0.20103683 -0.48280704 -3.9223773 4.649135
-0.58618265 -2.3297641 2.8739855 -0.5162718 -0.2602218 0.3441564 -0.63611287 -0.3187344
-16.855999 0.34083253 0.05772137 3.17348 0.25301895 -0.19585668 0.22786203 -0.75508875
-0.4067649 -16.922432 0.50364935 0.24128672 2.964093 0.49957934 0.09099759 0.31069654
-0.7850383 -0.4446034 -16.978382 0.29291528 0.25618404 3.313785 0.31505674 -8.029835
-2.6888423 0.6143781 -6.1240354 1.4542779 1.617803 -2.3451803 0.99315464 1.0807668
-7.915414 -2.674272 0.59660804 -6.1611075 1.3191816 1.5275549 -2.2827425 1.06377
0.83844596 -8.060646 -2.5602376 0.6767751 -6.173464 1.3749996 1.64187 -2.0775201
1.1029509 1.0710663 -3.2128522 0.3349778 2.848076 -3.5595074 1.3111142 1.7460965
-3.115149 2.143518 0.8684477 -3.2152429 0.20163879 2.8161857 -3.3720505 1.4293213
1.801559 -3.1308365 2.200009 0.98922753 -3.0545757 0.3847161 2.7645996 -3.6222267
1.4092104 1.6384435 -2.9654198 2.0575926 0.7959779 4.0286393 -3.880171 -0.39811537
-2.3735008 3.3804145 -0.90415573 -1.6838155 0.47285375 1.0409434 4.1545234 -3.6687663
-0.25232276 -2.3464656 3.541996 -0.94289255 -1.6608 0.36641455 1.1393672 4.1551013
-3.803405 -0.4125368 -2.1263769 3.2543375 -0.89143515 -1.5451266 0.3479169 1.0704429
-1.4023061 1.3353775 0.3068963 -5.1974216 4.2733393 0.7497477 1.4656006 -0.8455828
-0.638809 -1.0920334 1.4936978 0.28883573 -5.2857814 4.103705 0.65638375 1.3806366
-0.8756173 -0.43265164 -1.3232106 1.4684396 0.08415143 -5.288942 4.229196 0.8235716
1.5543824 -0.8717427 -0.43558913 2.7352872 -2.3620396 -1.1161522 0.7571086 -4.155861
1.9193968 -3.5611408 -3.197782 -1.1611551 2.9592574 -2.368692 -1.0833597 0.56056994

conv1.bias f4 [32]
00000000: 3140 ccbd de0a 64bd bf3d 7d3e 99ba 0fbf
00000010: effe 213e 122a 983d 7cd5 253e 325a 343f
00000020: 4ba4 dd3e 741f d2bd 1c1e 343f 147e 7e3e
00000030: fe99 383d 589e 153e 632a 4dbf 17ef 7fbe
00000040: dd0f 97b8 93e4 93bf 309f e03b 4ec6 6c3e
00000050: 126c 243e 4fbf fc3e 193b b5bd 7cfa 25be
00000060: 5226 78bf 7612 c3be 324a 9b3e 8c2b 973f
00000070: 350f 083d 35df 8abe 763f ca3e 9ba9 6140
-0.09973181 -0.055674426 0.24730586 -0.561441 0.15819906 0.07429899 0.16194719 0.7045013
0.43289408 -0.102599055 0.70358443 0.24852782 0.045068733 0.14611185 -0.801428 -0.2499355
-7.203196e-05 -1.155413 0.006854914 0.23122522 0.1605685 0.49364707 -0.088491626 -0.16208833
-0.9693347 -0.38100022 0.30330044 1.1810164 0.033217628 -0.27123418 0.39501542 3.525977

conv2.weight f4 [32, 32, 3, 3]
00000000: 30da 273f 6861 4b3f bd7b 10bf 49aa aabe
00000010: 4697 0940 6f4b 2fbf 698a 11c0 bbc3 2f40
00000020: ce13 39bf e4b8 1640 988a 05c0 f71e 6bbe
00000030: 1117 09bd e3eb d4bf fa3c 67bf 690c 163f
00000040: 58b8 1c3f 92ab eebf e3e8 9ec0 a1de 1c3f
00000050: b78b 5f3f ce43 5ac0 472b 3440 00be fb3e
00000060: e811 4140 8546 68c0 0a01 f83f f406 cbc0
00000070: 46f0 bf40 f735 6abf 1acd 42c1 62b0 0b41
00000080: 0003 a0bf 7ba7 c3bf bdf4 6a40 3bdf f8bf
00000090: 3395 01bf bc02 9cbf caea d6bd 8425 1f3f
000000a0: 57b2 bdbf 5982 35bf e9b0 8f3f dbef 48bf
000000b0: 736d 07be c73f cebd 4dc0 9cbf b6fa adbe
000000c0: ee85 6d3f 18f5 5fbf 4cdd 6abf d1ad a73f
000000d0: 0441 eebe 9f00 a33d b87e cac0 d077 8840
000000e0: 185f aa3d edcb 97c0 6186 7a40 a24f 113e
000000f0: 2b47 2bc0 7036 1940 9c3e 92bf f7aa 93be
00000100: 1f2c 893c e550 8c3a f1fc 84c0 6212 3fbf
00000110: 036d 71bf a775 edbf ff6e 45c0 7033 b13e
00000120: 2418 9ebf cd78 5c40 127d aabf deee 6ec1
00000130: b6d5 0441 500e 523f 8d66 d5bf c982 0540
00000140: 1160 893f 4903 bf3f a379 f7bf ba28 84be
00000150: ff74 1b3f 4a14 14be 4c09 273f 44b0 8abc
00000160: a829 aa3f 1c2e bc3e d0aa aac0 f564 cbbe
00000170: 8885 a9bf 7978 b4c0 6083 54bf 3846 613f
00000180: 2069 efbe 5123 b7be 14d2 84bf b01d 05c0
00000190: f622 1840 e650 ecbf 49b0 fb3e 2cbd 643e
000001a0: cc4b 67be ff49 8c3e bd01 a5bf 4b5f 093f
000001b0: b73b a9bd c3a8 3dbf 6e54 05bf 6aba 913f
000001c0: 957e 253f 52da 3b3c 5d39 b53f d283 2c3f
000001d0: 9e71 843e d2a1 1340 6cbf 0abf fcf5 d1bd
000001e0: 60f6 4c40 9de3 0a3e 16ba 073f 44e7 e63f
000001f0: d122 8abe c1ff bfbe 6f30 92bf 9f60 5f3e
00000200: 4070 913e 92b7 fdbf f9f0 6340 d80b fe3e
00000210: 3a5f b8c0 9a16 be3f ac72 da3e 0f20 5340
00000220: b452 82c0 e2eb d2bf 1c8e 1d40 d781 f3c0
00000230: 557b efbf 8705 023f 6a26 82c0 2211 8abf
00000240: 7245 853d 40e8 8abf ebfd b63f bd83 9dbe
00000250: a225 ddbe fa56 2b3f 9b60 b7be 64be f0bf
00000260: 6a96 9b3f e273 4ebf 7e69 093f 8347 993e
00000270: 5691 37c0 1e14 f93f 945c f23e 48b8 d4bf
00000280: 00a9 563d 5cdf 223f f176 5dbd 2222 2cc0
00000290: 7171 a73e 7187 75bf c962 5840 23c1 57bf
000002a0: 14d7 7ebf 789f 85bf 754c c4bf 031c 32bf
000002b0: 2b6c 1c40 1847 7d3e 7d2e 003f 1c0a 0240
000002c0: eeac b73f 420d 1840 decf a83f f34a a2bf
000002d0: a6f7 0fc0 4e0b 833e dee2 b93f b28e 863e
000002e0: e1af 0a3f 8d95 843e 7290 89bf 0ee6 343f
000002f0: 06cb e93e 5d71 30bf ed7d c23f ce07 533f
00000300: 6fad 19bf ea81 043f bc0c 4b3f 3098 d2be
00000310: b575 c9be 554f b3bd 9b1e ccbe 42c4 1bc0
00000320: 5f72 f8be 27b9 bebc 27a1 c23e 4e08 453f
00000330: 5148 f4bf b84c 4cbf 3f0d 193f 49ed 5140
00000340: baff 90c0 c410 fabf 4d89 683f 8b65 4e3f
00000350: 857f a33e ffe3 76c0 84cf f43f 139a 33bf
00000360: 1bf2 4e40 c509 64c0 6664 0940 2b51 9dbf
00000370: d8ca adc0 a7fe 3940 b9d9 9c40 2aa1 0cc0
00000380: e999 8c3f 101c 0ec0 2fd6 c13f 8abb 553f
00000390: e81f 9bbf 24c3 5f40 84df 993f b4ce f6be
000003a0: 4833 e33f 9af0 a6bf e710 05c0 c5bb b73d
000003b0: 448b 2ec0 1611 c7bf f96e 8a3f 0754 253f
000003c0: 892e 8fbf 80ef 7a3f 1e95 8f3f 0810 96bf
000003d0: 6d1e a7be 3990 6cbf 024c 1dbf 6487 1b3d
000003e0: e4e3 6ebf 00c1 9a3f 81a5 c2be c6b6 6f3f
000003f0: 295c 993f 6693 92bf 87b4 7f3f 7cfb aa3f
0.655673 0.79445505 -0.5643881 -0.33333042 2.149858 -0.6847448 -2.274073 2.7463214
-0.72295845 2.3550348 -2.086584 -0.22961031 -0.033469263 -1.6634487 -0.9032742 0.58612686
0.61218786 -1.8646109 -4.9659286 0.61277205 0.8732256 -3.4103885 2.8151414 0.49168396
3.016718 -3.6293042 1.9375317 -6.344599 5.9980803 -0.91488594 -12.175074 8.730562
-1.2500916 -1.5285486 3.6711876 -1.9443125 -0.50618285 -1.2188334 -0.10494001 0.6216662
-1.482005 -0.7090202 1.1225864 -0.7849099 -0.13225345 -0.10070758 -1.2246186 -0.3398034
0.92782485 -0.8748336 -0.9174392 1.309992 -0.46533978 0.07959103 -6.3279686 4.2646255
0.08318919 -4.7436433 3.9144518 0.14190534 -2.6762187 2.3939476 -1.1425357 -0.28841373
0.016744671 0.0010705261 -4.1558766 -0.74637425 -0.94306964 -1.855153 -3.0848997 0.34609556
-1.2351117 3.444873 -1.3319418 -14.933317 8.3021755 0.8205309 -1.6671921 2.0861075
1.0732442 1.4922878 -1.9333996 -0.25812322 0.60725397 -0.14460865 0.6524856 -0.016929753
1.3293962 0.3675393 -5.333351 -0.39725462 -1.3243876 -5.639706 -0.8301296 0.8799777
-0.46759892 -0.35769132 -1.0376611 -2.079937 2.3771338 -1.8462188 0.49157932 0.22337788
-0.22587508 0.27400205 -1.2891155 0.5366103 -0.08263343 -0.74085635 -0.52081954 1.1385014
0.64646274 0.011465626 1.4158131 0.6738864 0.25867933 2.3067517 -0.54198337 -0.10251996
3.2025375 0.1356339 0.5301832 1.8039327 -0.26979688 -0.37499812 -1.1421031 0.21814202
0.28405952 -1.9821646 3.5615828 0.4961841 -5.7616243 1.4850647 0.42665613 3.2988317
-4.0725956 -1.6478236 2.4617987 -7.6095996 -1.8709513 0.50789684 -4.067189 -1.0786479
0.06507386 -1.0852127 1.429624 -0.3076457 -0.43192774 0.6692959 -0.35815892 -1.8808103
1.2155278 -0.80645573 0.53676593 0.29937372 -2.8682456 1.9459264 0.47336257 -1.6618738
0.052407265 0.6362207 -0.05406851 -2.6895833 0.32703736 -0.9590979 3.3810294 -0.8427908
-0.99546933 -1.0439291 -1.5335833 -0.6957399 2.444102 0.24734151 0.50070935 2.031867
1.4349649 2.3758092 1.3188436 -1.2679123 -2.2494903 0.25594562 1.4522359 0.26280743
0.5417462 0.25895348 -1.0747206 0.70663536 0.45662707 -0.6892298 1.519468 0.82433784
-0.60030264 0.51760733 0.79316306 -0.41131735 -0.39347616 -0.08755366 -0.398671 -2.4338536
-0.48524758 -0.023281647 0.38013574 0.76965797 -1.9084569 -0.79804564 0.59785837 3.2801077
-4.5312166 -1.9536366 0.90834504 0.8062369 0.31933227 -3.8576658 1.9125829 -0.70156974
3.233527 -3.5630963 2.1467528 -1.2290395 -5.431011 2.9061677 4.9015775 -2.1973367
1.098447 -2.2204628 1.5143489 0.83489287 -1.2119112 3.4962854 1.2021337 -0.48204577
1.7750025 -1.3042176 -2.0791566 0.08971361 -2.72725 -1.5552089 1.0815116 0.6458134
-1.1186076 0.980217 1.1217382 -1.1723642 -0.326404 -0.92407566 -0.61444104 0.037970915
-0.93316483 1.2090149 -0.38016894 0.93638265 1.198125 -1.1451232 0.9988484 1.3357997

conv2.bias f4 [32]
00000000: 1510 a63e d512 8a3d afd8 e0bc da67 3e3d
00000010: 1211 713d 25b7 133e 91c5 f4bd b4e4 603d
00000020: 8d32 243e 14e0 1f3e f45d 993c 8235 a33d
00000030: 8202 4fbe 8a53 cb3d b348 37bd 5e2a 22bd
00000040: 664d 393d b2e6 4a3d 6f8b bfbd 7ef9 14bd
00000050: fc04 d53c 8e55 16be dc11 063e d60c f43d
00000060: fa07 243e 4bfc 843d 4058 51be f70f 003b
00000070: b028 e1bc b890 13be 30df 9e3d a97b 0d3d
0.32434145 0.06741873 -0.027447073 0.04648576 0.05885417 0.14425333 -0.11951745 0.05490561
0.16034909 0.15612823 0.018721558 0.0796919 -0.202158 0.09928043 -0.044747066 -0.039591186
0.04523983 0.049536414 -0.09352767 -0.036370747 0.026003353 -0.14681074 0.1309275 0.11916511
0.16018668 0.064934336 -0.20443821 0.0019540766 -0.027485222 -0.14410675 0.077574134 0.03454176

conv3.weight f4 [32, 32, 3, 3]
00000000: 159a 24c0 8adf c53f 750d ebbf 1319 dcbf
00000010: 7fa3 bf3f b1bc b1bf a5ba 22c0 1188 1240
00000020: bcac 5e3f a363 7d3f 4a99 a140 80a9 16bd
00000030: db58 41c0 67da 4440 d680 083f b59b 82c0
00000040: c955 f2be ec76 f1bf 7f71 92c0 b9a7 82c0
00000050: 0ccf 7a3f d225 2440 1f58 45c0 7175 8540
00000060: 6fd7 bd3f 7a77 333e 49d7 0340 0edb f7c0
00000070: 819c 15c1 27a6 d1c0 b04f c73e 324f e8be
00000080: 3bbb 373f 2f79 2dbf fdce 9dc0 a128 06c0
00000090: 0e69 4640 5ee6 3b3e f613 33c0 f4d3 9bc0
000000a0: 870d b93e 2ed5 c8bf 395e 9cc0 9a7d e8bf
000000b0: 73a1 363f c416 ad3f c7c5 7540 98d8 28c0
000000c0: 5377 d33f 9bab abbe b2ef 7ac0 d41d c0be
000000d0: 5235 66bf 70e1 ecbe 0893 17c0 b1aa b240
000000e0: c6b2 0f40 f7ef 4cc0 556a 1bbf 683c b03e
000000f0: 3cd8 4fbf e32d b6bf 498c a13f 8e1e 8e3f
00000100: 1e31 85c0 558f 41c0 4843 1640 5c63 20bf
00000110: a83b 05c0 90c0 fa3f 45ed 2bbd 6481 5c40
00000120: ba3a bbbf 958d a1bf 2624 3640 cb67 7840
00000130: 30bc 25be 369e d4bf 4517 e53f 16e9 bebf
00000140: f93a 2dbe 79bf c73f 94c0 273f ff2d 2e3f
00000150: 3ba4 34c0 121b 86bf 79dc d3bf 5417 933e
00000160: 08ff 75c0 2fb8 2540 956b 0dbf caff 1bc0
00000170: 9240 d9bf 873f d0bf 70e5 373f d692 d53f
00000180: c54f 69c0 f49b 81bf f755 3340 481a 8f40
00000190: adc0 b9bf 972c 803d 9b3e b73e f8c8 afbf
000001a0: e369 823f 6131 eebf fb2f 96bf 1aea abbe
000001b0: bc58 9e40 34d8 2740 6dcd c13f fe5b 4e3b
000001c0: 33c9 dcbf 52b0 b63e b65d 03c0 ed19 10c0
000001d0: 766f 8cbf 6076 2e40 45c7 7dbf 2b53 62c0
000001e0: c318 eabe 854f a340 1a5e 0cbf 93f5 273e
000001f0: 4433 df3e ee77 14c0 39be 8c40 f020 9c3f
00000200: 7401 0840 86c0 0cc0 6cc9 8940 5200 b5be
00000210: 3f2c cd3e ced1 6440 feda c53d 5349 323f
00000220: 3af7 8cbf 98ec d5bf 2596 a2bf d7e8 5d3f
00000230: a4b7 0940 c619 113f 8b10 0abf ea81 c4bd
00000240: 2d93 14c1 20ca 48c0 0ca2 f6be 3304 e0bf
00000250: 300a 47c0 5a9d 3340 7da1 7d3e 0c8e c5bc
00000260: bc3a 6e40 a781 f0bf cad7 09c0 a027 36c0
00000270: e83e 02bf 6c0e c13f 340c d3bf bfb6 a4c0
00000280: ee2e 88bf 83a3 47bf 6922 d93f 8b92 56c0
00000290: a283 0440 e8ff acbf 9599 64bf c646 5140
000002a0: b616 31c0 7a5f 9cbf 7ebf 3c3e 45c6 893f
000002b0: 9383 e0bf 0363 9ebf c5b0 7040 2161 dd3e
000002c0: 8aad 89c0 6257 d53f 3a9b ee3f 0412 c5be
000002d0: cac3 e03d 83e2 973e 55e1 df3f 1355 4140
000002e0: 368f 4d40 1d33 d5c0 54d2 b83f 86a4 fc3e
000002f0: 74d8 b0bf 3d77 c6c0 c2f1 3540 fe30 2140
00000300: 9e1d 91c0 b4f4 2e3f 7104 813f 3b9c 43c0
00000310: 192d 8e40 1187 cd3f 80ab b9be d03e 27bf
00000320: d136 1fbd dcc7 7dc0 103b 05c1 dd8f 993f
00000330: 81d1 eb3e ddad 00c0 6ea8 e83f 3e37 923f
00000340: f6c2 123e 6a13 4740 4548 e53f 641a d73f
00000350: 4b87 93c0 4bfb e1bd b62f b53f 6e9c 46c0
00000360: 5056 f8bf b23e 08c0 eb9a 723f 9d09 bfbe
00000370: 4425 7a3e db38 0b40 446e b0c0 c257 acbf
00000380: be14 c83f 1d68 f5bf 6aef 2f40 ef69 8d40
00000390: f46e 0740 a9a2 f8bf 0577 423f 0d81 6c3f
000003a0: 6772 45c0 9dd4 cdbf bb82 97c0 3cd0 29c0
000003b0: f8e4 04c1 3fb0 95bf 5f7a d2bf 1c4d fcbf
000003c0: db9f 01c0 6abb d0be 0948 e53e 8208 92bf
000003d0: 5ead 453e 12c6 9c3e 79ed bc3e 00e3 5a40
000003e0: afaa 43bf 5008 633e efee 5a40 1b1d fa3f
000003f0: d6a6 363f f556 d7bf e135 263f 4398 1e40
-2.5719044 1.5458844 -1.8363482 -1.7195152 1.497177 -1.3885709 -2.5426419 2.2895548
0.8698232 0.9898016 5.049962 -0.03678274 -3.0210483 3.0758302 0.5332159 -4.081507
-0.47331074 -1.8864417 -4.5763545 -4.082974 0.9797218 2.5648084 -3.0835035 4.170586
1.483137 0.17526045 2.060015 -7.74549 -9.350709 -6.5515323 0.38927984 -0.4537292
0.71770066 -0.67763036 -4.931517 -2.0962298 3.100162 0.18349597 -2.7980933 -4.869623
0.36143133 -1.5690057 -4.886502 -1.816333 0.713401 1.3522573 3.8401964 -2.6382198
1.652079 -0.33529362 -3.9208798 -0.37522757 -0.8992511 -0.46265745 -2.368349 5.5833364
2.2452865 -3.2021463 -0.60709125 0.34421086 -0.8118932 -1.4232754 1.2620937 1.1103075
-4.1622458 -3.0243733 2.3478565 -0.6265161 -2.0817661 1.9590015 -0.041974325 3.4453974
-1.4627297 -1.2621332 2.8459563 3.881335 -0.16185069 -1.6610782 1.7897726 -1.4914882
-0.16917028 1.5605308 0.65528226 0.68038934 -2.8225238 -1.0477011 -1.6551658 0.28728735
-3.8436909 2.5893667 -0.5524228 -2.4374871 -1.697283 -1.6269387 0.7183447 1.6685436
-3.6454937 -1.0125718 2.8021219 4.471958 -1.4511925 0.06258505 0.35789952 -1.3733206
1.0188564 -1.8608819 -1.1733392 -0.33577043 4.948332 2.622571 1.5140816 0.0031487937
-1.7248901 0.35681397 -2.0525947 -2.2515824 -1.0971515 2.725975 -0.99132186 -3.5363262
-0.45722017 5.103457 -0.5483109 0.16402273 0.435938 -2.31982 4.3982205 1.2197552
2.1250887 -2.1992507 4.3058376 -0.35351807 0.4007282 3.5753055 0.0966091 0.69643134
-1.1012948 -1.6712828 -1.270207 0.8668341 2.1518335 0.5667995 -0.5393149 -0.09595092
-9.285932 -3.1373367 -0.48170507 -1.7501281 -3.1099968 2.806479 0.24768634 -0.024115585
3.7223349 -1.8789567 -2.1537957 -2.8461685 -0.5087724 1.5082526 -1.6488099 -5.147308
-1.0639322 -0.77983874 1.6963626 -3.3526943 2.0705342 -1.3515596 -0.8929685 3.2699447
-2.7670112 -1.2216637 0.18432423 1.0763632 -1.7540153 -1.2373966 3.7607892 0.43238166
-4.302434 1.6667292 1.8641121 -0.38490307 0.10974844 0.29665002 1.7490641 3.0208175
3.211866 -6.6624894 1.4439187 0.4934427 -1.3816056 -6.2020555 2.8428807 2.5186152
-4.5348654 0.6834214 1.007948 -3.0564106 4.443005 1.6056844 -0.36263657 -0.6533022
-0.038870636 -3.9653234 -8.32692 1.1997029 0.46058276 -2.0106118 1.8176401 1.1423109
0.14332184 3.11056 1.791268 1.6804929 -4.6102653 -0.110342585 1.4155185 -3.1032977
-1.940134 -2.1288266 0.94767636 -0.37312022 0.24428278 2.1753452 -5.51346 -1.3464282
1.563133 -1.9172398 2.7489877 4.4191813 2.116147 -1.942464 0.7596286 0.92384416
-3.0851076 -1.608051 -4.7347083 -2.6533346 -8.305901 -1.1694411 -1.6443595 -1.9711032
-2.0253818 -0.40767986 0.4478152 -1.1408846 0.19304416 0.30619866 0.36899927 3.420105
-0.7643232 0.2217114 3.4208333 1.9540132 0.7134832 -1.6823412 0.6492596 2.4780433

conv3.bias f4 [32]
00000000: 8c13 a63d 4308 fd3d fb07 71be 823e 62bd
00000010: 30ce 7ebe 1494 3cbe e3d4 a1bd 70ef edbd
00000020: 00a2 9cbe aac5 93bd 3253 aabe 4e9a 2abd
00000030: 4797 1abd 41aa 04be fdeb b3bc 166a 8abe
00000040: 1cc7 ddbd 8806 483d 5286 053d 7a75 22bd
00000050: 26fb 34be 8ab6 4fbd aa3a 24be 284d e5bd
00000060: b853 9c3d 935e 19be 2717 dabd 588e 74bd
00000070: 2376 4ebd cb6f a0bd 6c57 7ebe b07f a7bd
0.08109197 0.123550914 -0.235382 -0.055235393 -0.24883342 -0.18415862 -0.07901933 -0.11617935
-0.30592346 -0.07215436 -0.33266598 -0.041651063 -0.037741926 -0.12955572 -0.021963114 -0.27034062
-0.10828993 0.048834354 0.0325988 -0.039662816 -0.1767393 -0.050711192 -0.16038004 -0.11196357
0.076331556 -0.14977483 -0.10648947 -0.059706062 -0.050405633 -0.07833823 -0.24838036 -0.08178651

bn1.weight f4 [32]
00000000: cb8d 3e40 b1d1 e93f 2769 3b40 5bf7 2040
00000010: 975e 8c40 97fe 7b40 0f76 0440 4ffc e83f
00000020: 31f2 1540 c379 7040 922a fd3f e164 8240
00000030: 2b64 b23f cb25 753f f19a b63f 2c2a 3f40
00000040: 50f0 8040 583f 3940 b5f7 8c3f 85bb 5e40
00000050: acd0 7240 353b 8e40 bc26 8240 4057 dc3f
00000060: 7609 7540 f4e2 0a40 3ca5 a040 5bad 0c40
00000070: 5f57 0040 fe77 8040 1d0f 0340 3962 4c40
2.9774044 1.8267118 2.928293 2.5150974 4.3865466 3.937414 2.0697057 1.8201998
2.3429072 3.7574317 1.9778616 4.0748143 1.3936819 0.9576079 1.4266034 2.986949
4.029335 2.8944912 1.1013094 3.4801953 3.7939863 4.4447274 4.0672283 1.7214127
3.8287024 2.1701021 5.02017 2.1980808 2.0053327 4.0146475 2.0477974 3.193495

bn1.bias f4 [32]
00000000: 1db6 8fc0 20cc 8f3e c3c4 7fc0 b212 583f
00000010: b90f 21c0 6da2 16c0 67ee b83e 7f89 15be
00000020: b8db 423e b72f 23c0 8645 c6be f19b 3cc0
00000030: 9d2d 70bf e5cc 463e df19 273f 4304 88bf
00000040: e81d 20c0 f5af e9be d9e6 3b3f 83ab 10c0
00000050: ee0a 1dc0 390e 37c0 1e9a 22c0 f0df 683e
00000060: ea9b ccbe 4477 0d3f f560 49c0 2776 5abe
00000070: 6d48 06c0 7a43 29c0 9c0e abbd f9b2 a7be
-4.4909806 0.28085423 -3.9963844 0.84403527 -2.5165846 -2.3536637 0.36119387 -0.14603232
0.19029129 -2.5497873 -0.38724917 -2.947018 -0.938196 0.19414099 0.6527385 -1.06263
-2.5018253 -0.45642057 0.7339912 -2.2604682 -2.453792 -2.860243 -2.5406566 0.22741675
-0.39962703 0.5526011 -3.1465428 -0.21334134 -2.0981705 -2.6447434 -0.08352396 -0.32753733

bn1.running_mean f4 [32]
00000000: 0ce5 93c1 2f29 eabe 5496 97c0 6ec5 4ebf
00000010: bb73 9641 2795 7d41 13b3 e93e 1ec3 253f
00000020: 98bf 43be c24b 4e41 ab99 ea3f ba7d 2141
00000030: 5d0e 8cc1 eb50 0941 bb2e 9abf 87ad 5bbf
00000040: d2de 9641 e204 e4bf c1d9 f53d f2be 8840
00000050: 39bc 1c41 9b89 b641 4d2e e041 5c9f bebd
00000060: 0624 c5bf 72fb 31bf 8b83 b141 147b 0f3f
00000070: f8e5 86c0 5a98 5841 9647 ad3e 998a 3840
-18.48684 -0.45734546 -4.7371006 -0.80770004 18.806509 15.848914 0.45644435 0.6475085
-0.19116056 12.893496 1.8328146 10.093195 -17.507013 8.582255 -1.2045511 -0.85811657
18.858799 -1.781399 0.12004424 4.2733088 9.795953 22.81719 28.022608 -0.09307739
-1.5401618 -0.695243 22.18923 0.5604718 -4.2155724 13.537195 0.33843678 2.8834593

bn1.running_var f4 [32]
00000000: b92d 5b44 f587 0e43 404d b242 c51f 5542
00000010: 145a 6344 dde3 5544 aed5 1943 b2da 6e41
00000020: 5b86 3442 5a35 da43 e6ce 6642 597a c543
00000030: 4d5f 8144 d079 8d43 59f3 d641 c1c7 a442
00000040: 43b3 6d44 02f7 cf41 dad4 c441 3a05 b942
00000050: 920e 7043 c9f3 a544 e273 0445 6033 0943
00000060: 49aa 4c42 0de6 0343 0031 b444 e73b 6c42
00000070: a0de f142 0a0e 1844 e783 c542 4e95 9b42
876.7144 142.53108 89.15088 53.281025 909.4075 855.56036 153.83469 14.928392
45.131207 436.4168 57.70205 394.95584 1034.9781 282.95166 26.868822 82.390144
950.80096 25.99561 24.603931 92.51021 240.05692 1327.6183 2119.2427 137.20068
51.166294 131.89864 1441.5312 59.0585 120.934814 608.21936 98.75762 77.79161

bn2.weight f4 [32]
00000000: 279d 6740 1bdd 0040 2f90 d13f c577 3940
00000010: 4ceb 4740 bc5b 7b40 455a 0440 2ce2 0240
00000020: e842 0740 b85d 5240 0a55 cb3f 5952 d73f
00000030: 9f85 3e40 381f b640 65d9 1240 57ee 4940
00000040: e9eb 0d40 e771 0940 5e08 ac40 7108 4640
00000050: b49b 4a40 9c57 1b40 d413 4840 05a2 d63f
00000060: b770 9640 5007 6940 f953 1e40 d2a0 4640
00000070: 1bcc 4b40 739a 3940 c219 3f40 802c 7e40
3.6189668 2.0134952 1.6372126 2.8979352 3.1237364 3.927474 2.0680096 2.0450544
2.1134586 3.2869701 1.5885327 1.6822006 2.9769056 5.691311 2.2945187 3.155172
2.2175238 2.147577 5.3760214 3.0942652 3.1657534 2.4272223 3.1262102 1.6768194
4.701259 3.6410713 2.4738753 3.1035657 3.1843326 2.9000518 2.9859471 3.971466

bn2.bias f4 [32]
00000000: c648 cebf 2e6b 88bf eeb3 83bf 09f8 d7bf
00000010: b69a 05c0 51b6 4ec0 2040 6cbf 4c71 c2bf
00000020: 8ff9 b7bf f763 c5bf 0dde 15bf 179e e8be
00000030: 9e84 d7bf 2634 41c0 fb53 c7bf 4193 04c0
00000040: 87e8 b1bf 0144 1cbf 2a68 25c0 caab c9bf
00000050: 18d8 2ac0 a808 a3bf f60d 11c0 1e21 01bf
00000060: 112d 47c0 7ac0 debf 352a 82bf 3a72 adbf
00000070: dd4b e3bf a734 e1bf 9b77 88bf 7712 0fc0
-1.6115959 -1.0657709 -1.0289285 -1.6872569 -2.0875678 -3.2298777 -0.92285347 -1.5190825
-1.4373034 -1.5421132 -0.5854195 -0.45433113 -1.6837347 -3.018808 -1.5572504 -2.0714877
-1.3899087 -0.61041266 -2.5844827 -1.5755551 -2.6694393 -1.2737017 -2.266477 -0.5044116
-3.1121256 -1.7402489 -1.016913 -1.3550484 -1.7757527 -1.7594193 -1.0661501 -2.235502

bn2.running_mean f4 [32]
00000000: 206a 13c2 63a6 9fc1 0057 24c2 debf 1cc2
00000010: 85dc 25c2 d80d 07c2 94a2 2dc2 35c3 94c2
00000020: a8ca 4ac2 f95d 4bc2 c62e a0c1 eee4 f7c2
00000030: 9ae1 06c2 8587 9ac2 682f 69c2 c180 65c2
00000040: 995d 1dc2 cc32 bcc1 8435 9cc2 caff f6c1
00000050: 4e63 73c1 a9d4 93c2 1ea0 8940 c0dc 2dc2
00000060: 94ae 29c2 979e 7dc2 1f81 2ec2 3f3c 9fc2
00000070: e7f9 4ec2 b815 e0c0 8831 1042 21a3 d5c2
-36.853638 -19.956244 -41.08496 -39.18737 -41.46535 -33.76352 -43.408768 -74.38126
-50.697906 -50.84177 -20.022839 -123.94713 -33.720314 -77.26469 -58.296295 -57.375736
-39.341404 -23.524803 -78.10452 -30.874897 -15.211744 -73.91535 4.3007956 -43.465576
-42.420486 -63.404873 -43.626095 -79.61767 -51.744045 -7.002651 36.04837 -106.81861

bn2.running_var f4 [32]
00000000: 4ca1 9245 79db f944 b5e2 0f45 4aed 2345
00000010: cc29 3f45 b9ef 2e45 5c6b 3545 c617 8845
00000020: 4239 3345 f301 ac45 b045 8545 0f12 e745
00000030: 89f0 0545 4389 f845 3046 bb44 c8c2 8045
00000040: ae8c 0745 c809 8645 f031 2746 d114 5045
00000050: 4ccb e844 c287 4445 78bb 0445 f54d 4045
00000060: f632 3845 0115 a645 c77f 7645 7aa5 b845
00000070: 9771 9d45 a790 0745 acab 4e45 cd16 e345
4692.162 1998.8585 2302.1692 2622.8306 3058.6123 2798.9827 2902.71 4354.9717
2867.5786 5504.2437 4264.711 7394.2573 2143.0334 7953.1577 1498.1934 4120.3477
2168.7925 4289.2227 10700.484 3329.301 1862.353 3144.4849 2123.7168 3076.8723
2947.185 5314.6255 3943.986 5908.6846 5038.1987 2169.0408 3306.7295 7266.85

bn3.weight f4 [32]
00000000: 00db 363f a0b9 f53e cc3b c73e bb0e 293f
00000010: 9845 fa3e 356d ea3e e31a 043f f2a4 003f
00000020: 5a08 023f 7dfa b53e 839d 613f 05c2 103f
00000030: e8cd f73e f3c1 cd3e f245 013f cbb6 f73e
00000040: df30 ec3e 024f 223f 60b8 543f 0c7b 053f
00000050: 10ea 0e3f 9598 343f 1a0e 263f 031e e23e
00000060: 29da 393f dbc1 3b3f ad4d fb3e d643 073f
00000070: 1767 e73e 4757 103f 1d63 523f 58f4 2c3f
0.7142792 0.47993183 0.3891281 0.660381 0.4888122 0.45786443 0.51603526 0.50251687
0.50793993 0.3554267 0.8813097 0.5654605 0.48399282 0.40187034 0.50497353 0.48381647
0.46131036 0.63401806 0.83093834 0.5214088 0.558259 0.7054532 0.6486527 0.44163522
0.7259851 0.73342675 0.490827 0.52837884 0.4519584 0.56383175 0.82182485 0.6756034

bn3.bias f4 [32]
00000000: 82c6 73bf 3daa 04bf 3176 efbe 415a 35bf
00000010: c45a 2bbf aed6 1dbf 0bd3 2fbf 9be7 c2be
00000020: a844 22bf ae02 f2be 6137 abbf 8aaa 16bf
00000030: 1417 61bf 5461 f3be 0fed 0cbf d450 10bf
00000040: b47f b3be 2d84 35bf 15b3 8ebf 5e1b 16bf
00000050: e3f6 22bf 513c 62bf 9552 3fbf 843d 17bf
00000060: 1f83 93bf 900d aabf 95c1 4fbf e19c 08bf
00000070: b283 adbe 5ba1 05bf b2d6 98bf 717f 93bf
-0.95224774 -0.51822263 -0.4676986 -0.7084084 -0.6693537 -0.616557 -0.686814 -0.38067326
-0.6338601 -0.4726767 -1.3376275 -0.5885397 -0.8792584 -0.47535193 -0.5504922 -0.56373334
-0.35058367 -0.7090481 -1.1148401 -0.5863551 -0.6365797 -0.88373286 -0.74735385 -0.5907824
-1.152439 -1.3285389 -0.8115476 -0.5336438 -0.33889538 -0.52199334 -1.194052 -1.1523267

bn3.running_mean f4 [32]
00000000: 5f7a e5c1 c310 2ac2 5c37 0bc2 9c41 1cc2
00000010: 1f97 19c2 435c e5c1 b60b d9c1 3a3b efc1
00000020: 929e 3ac2 7187 aec1 cd9a bec1 f13b 17c2
00000030: 3fb0 a7c1 866e 20c2 043b 0ec2 687b 02c2
00000040: d6e6 17c2 5904 9ec1 78bc 33c2 5963 06c2
00000050: 8205 fdc1 67d3 21c2 7c05 40c2 c250 1cc2
00000060: 3b8f 27c2 73e6 f1c1 63bb 7bc1 de54 b3c1
00000070: 2231 f1c1 1784 03c2 d32c 08c2 1efd 44c2
-28.684752 -42.51637 -34.80406 -39.06407 -38.39758 -28.67005 -27.130718 -29.90392
-46.654854 -21.816133 -23.825586 -37.808537 -20.961058 -40.107933 -35.557632 -32.620514
-37.975426 -19.752123 -44.93405 -33.59702 -31.62769 -40.456448 -48.005356 -39.078865
-41.889874 -30.237524 -15.733249 -22.41644 -30.14899 -32.878994 -34.043774 -49.247185

bn3.running_var f4 [32]
00000000: 8f77 0c44 84ce 8044 2229 0544 f16d 8244
00000010: 06ec 1444 13d7 fa43 d141 1144 3b4e 8944
00000020: a6d1 5a44 af4e cb43 6d1a fa43 d7a2 8144
00000030: 0e73 b743 b418 3144 b549 5b44 6d1a 2f44
00000040: f430 ad44 9a9e 5544 f051 3844 0b64 4b44
00000050: 967c 7944 7b1c 5944 b7a0 9844 a851 3044
00000060: 717e 3044 b027 a643 6f56 e043 5edb 3d44
00000070: 2cb0 9144 f26a 8d44 b8b5 c643 3b9c 2244
561.8681 1030.4536 532.6427 1043.4357 595.68787 501.68027 581.0284 1098.4447
875.27576 406.61472 500.20645 1037.0887 366.89886 708.386 877.1517 700.4129
1385.5298 854.47815 737.2803 813.5632 997.94666 868.445 1221.0223 705.2759
705.97565 332.31006 448.67526 759.4276 1165.5054 1131.342 397.41968 650.4411

fc1.weight f4 [48, 1568]
00000000: 2efd 863f f486 63bf 0a98 da3e be8d 24be
00000010: bf07 f4bc e244 653c 8e39 c4be 588e 483e
00000020: acaa 9abe 4262 263e 9843 19bf a474 843e
00000030: 6f14 95bf ce02 cf3e ce05 5dbe 539b 233d
00000040: 0814 8d3e fea5 27be 87cf d53e dba3 f0bd
00000050: 0ac6 1bbf 9ebe 34be 474e d0be 3500 a8bd
00000060: ab37 e9bd fcb3 debe 7fff a1be 3db5 6cbe
00000070: ae91 61bf 7bbc 6c3f d564 c03e ea3d 083f
00000080: d218 d03e f79c 4abe 4b42 bf3e 499c 25bd
00000090: c0ee 31bf 6fd2 eabc b1ee 18be bd66 033f
000000a0: 8daf d63e f698 8e3d c678 f8bd fa2d 9e3e
000000b0: 3252 1abe d8fe 94be a841 e7bd 07ab 69bf
000000c0: cb27 8dbf c552 01c0 96ac 053f cdb5 a23d
000000d0: 5d45 e23d cc51 4abc 1c82 d8bf e160 a63d
000000e0: 6850 a13e 70ab 12bf dc87 ad3e 80fb 243e
000000f0: 593b a9be bfb3 ef3d 08c5 9b3d dba4 2bbe
00000100: 0b2c 4f3e 9193 a8be 5aba 9a3d de2f 973e
00000110: eea1 aa3e 615b f73e 66ac edbd 8f88 1abe
00000120: c150 babc 72fd ec3e 2111 f83d 57dd 003e
00000130: 47a2 0b3f 9a6b 573c 7fe5 66be d522 cc3d
00000140: ffbb 543e 8e52 e03e 43f7 62be 45e4 933e
00000150: 6dc0 df3d be5b af3d a1f0 59bc d6a3 b23e
00000160: 9d4f 98be cc5d 3abf 87c1 1dbc 47e2 0fbf
00000170: bff6 10be d3d8 883e be8c e53e 4e74 81bf
00000180: ec0f 1d3e d3d2 143e fdd4 9e3f 9a55 ac3e
00000190: 09dd bfbe c1f6 6bbe a46b 31bf a4d5 8bbf
000001a0: 1b15 123f a1e7 6e3f 2c2d 98be 5bfb aa3e
000001b0: ec81 2d3e c039 083d 246a 82be 375b 38be
000001c0: e2be 84bf 9ea0 89be f606 0ebe 8e3a d8bd
000001d0: 721e b1bf d275 863e 4693 c43e a917 f8be
000001e0: 1595 e8be 1f22 5c3e fb20 f43e 1630 a7be
000001f0: 4ade 343f 2c44 c0be 4ce4 273f 870e 3d3f
00000200: f611 833d b626 923e 7d06 20bf e0c8 9e3e
00000210: c502 19be 11e9 0fbf aafe f43c 8a6b d5be
00000220: e2db 06bd e045 a93e 0cc6 29bf bda7 b7be
00000230: 127d a83f bf12 c7be 3a0c c43e 57ca 0abd
00000240: dcc6 86be 2b75 b63e 1b28 1cbd d184 6a3f
00000250: 5385 d7bd 183a 79be 26d7 d53e 149d 03bf
00000260: 54b0 023e 71c9 103f 08f9 b9bf 07a5 393f
00000270: 8cea b7be 677c 12bf 8a8b 4cbf 3a02 aebe
00000280: 0d46 183f bcf0 1cbf 7d43 733f 8d7b d4be
00000290: 0edf a03e b844 8f3d dacb d83e e679 57be
000002a0: e5ae 4a3f 8985 19bf fbf9 4dbb c53b 08be
000002b0: 91d8 98be a394 19be 5970 d5bf 3e78 c73e
000002c0: 749d a73d 6614 933d cd1e 043f eef2 1a3f
000002d0: 494e 55be 2c6d 55bf 743e ba3e f93f 243e
000002e0: 22ff ae3e f78d 803f 1fe1 1dbe 8128 52bd
000002f0: 9b92 303f d527 263c 6c04 d03e fb3b acbe
00000300: 9ca0 bc3e b475 28bd 28dd c9be 38f5 db3e
00000310: 6920 df3e f9cf 4b3f 5123 a13e 0896 ee3e
00000320: 47d2 41bf 987a 993e 84e0 e73e 82d1 46bf
00000330: eec0 b53e c327 afbe b2d0 373d bc80 a4bd
00000340: 0396 2a3f 8870 24bf bfb4 323f eddb 6abc
00000350: 8747 ef3e 38db 52be ed10 2d3d 776b 9fbe
00000360: c3e9 083f 3f63 71bf de9c c53d 5906 f33e
00000370: 8c98 aebd 42eb 83bd cd6d 21bf 560b 4d3e
00000380: 69a6 75bf 5629 1b3e 37e4 41be fe93 043f
00000390: 4342 0c3f d777 78bd 84eb ce3c 868e 903f
000003a0: 94a4 fdbe ef04 63be e118 3bbe 9a48 703e
000003b0: 6d62 7cbe 0340 25bf a75f d53f 30b5 d5be
000003c0: f950 9bbe 5096 8c3e 8c31 84be 656e a3bd
000003d0: c5dc 1dbf b662 82bd 25ab 4e3f d491 9cbd
000003e0: 8538 4e3f 7e61 a5be d76e a73e 2f0f 5ebf
000003f0: 9378 903e 6367 263f 3c99 e03d 404c 6a3e
1.0546014 -0.888778 0.42694122 -0.16069695 -0.02978885 0.013993474 -0.3832516 0.1958555
-0.30208337 0.1624842 -0.59868765 0.2587024 -1.1646861 0.40431827 -0.21584246 0.03994305
0.27554345 -0.16371915 0.41759893 -0.11750003 -0.6084906 -0.1765084 -0.4068472 -0.082031645
-0.11387571 -0.43496692 -0.3164024 -0.23116012 -0.88112915 0.924751 0.3757693 0.53219473
0.40643936 -0.1978644 0.37355265 -0.04043225 -0.6950493 -0.028664796 -0.14934804 0.5132864
0.4193081 0.06962769 -0.12132411 0.30894452 -0.15070418 -0.2910068 -0.1129182 -0.9127659
-1.1027769 -2.0206769 0.5221647 0.07944832 0.11048386 -0.012348603 -1.6914706 0.08123947
0.31506658 -0.5729284 0.33892715 0.16111565 -0.3305309 0.11704206 0.0760594 -0.16762106
0.20231645 -0.32925084 0.07555075 0.29528707 0.33326668 0.48311904 -0.11605148 -0.15091155
-0.022743585 0.46287113 0.12112642 0.12584434 0.5454449 0.013148213 -0.22548483 0.09967581
0.2077484 0.43812984 -0.22164635 0.28885093 0.10925374 0.0856242 -0.013301999 0.34890622
-0.2974824 -0.7279937 -0.00962866 -0.56204647 -0.14156626 0.26727924 0.4483394 -1.0113618
0.15338105 0.14533548 1.2408749 0.3365906 -0.37473324 -0.23043348 -0.6930487 -1.0924573
0.57063454 0.9332219 -0.29721963 0.33394894 0.16944093 0.0332582 -0.25471604 -0.18003546
-1.0370753 -0.26880354 -0.13869843 -0.105580434 -1.3837416 0.26261765 0.3839361 -0.4845555
-0.4542624 0.21497391 0.47681412 -0.32653874 0.70651686 -0.3755201 0.6558273 0.7385029
0.0639991 0.2854516 -0.625099 0.3101263 -0.14942463 -0.56215006 0.02990659 -0.41683608
-0.03292454 0.33061123 -0.6631782 -0.35870162 1.3163168 -0.3888149 0.38290578 -0.033884373
-0.26323593 0.35636267 -0.038124185 0.9160891 -0.105234765 -0.24338567 0.41765708 -0.5141156
0.12762576 0.56557375 -1.4529123 0.72517437 -0.35921133 -0.5722107 -0.7990042 -0.33986074
0.5948189 -0.6130483 0.95024854 -0.41500512 0.31420177 0.06995529 0.42343026 -0.21042594
0.7917312 -0.59969383 -0.0031429518 -0.1330405 -0.29852727 -0.14998107 -1.6674911 0.38958925
0.08184329 0.07181625 0.516095 0.6052693 -0.20830645 -0.8336971 0.36375773 0.16040029
0.34179026 1.0043324 -0.15417908 -0.05130816 0.689737 0.010141333 0.40628374 -0.3363951
0.36841285 -0.041127875 -0.3942654 0.42960525 0.43579414 0.79614216 0.31472257 0.4659884
-0.7571148 0.29976344 0.4528848 -0.77663434 0.35498756 -0.34210023 0.04487676 -0.08032367
0.6663515 -0.6423421 0.69807047 -0.014334661 0.4673426 -0.20591438 0.04225247 -0.31136677
0.5348169 -0.9429206 0.09649061 0.4746578 -0.0852519 -0.06441356 -0.6305817 0.20023856
-0.95957047 0.15152487 -0.18934713 0.5178832 0.5478861 -0.060661163 0.025258787 1.1293495
-0.49539626 -0.22169851 -0.1827121 0.23465195 -0.24646921 -0.645508 1.6669816 -0.41739798
-0.30335215 0.2745843 -0.2581905 -0.079800405 -0.6166499 -0.06366484 0.80729896 -0.07645002
0.8055499 -0.32300943 0.32701752 -0.8674192 0.2821699 0.65001506 0.10966727 0.2288065

fc1.bias f4 [48]
00000000: aa2b ac3b 4eb5 31be 3282 ff3c 5b9d 55be
00000010: ac8a 15bd 0656 1840 4663 8d3d a34c e63d
00000020: 7031 ae3d 32fd 31bd dc5b 8bbd 489f 47bd
00000030: d63e ad3d bddf df3c bad7 c13d fff8 19bf
00000040: 5e3a 813a bc4b 97be dfe5 0fbd 719d 23bd
00000050: e590 2d40 89cf ef3e 99e5 9fbc 0844 993c
00000060: 6113 943f 676e e6bb ebaa 283d e36a 89bd
00000070: 9e1b a93d 1f3c b33d a144 463e d0dc 9c3c
00000080: aa5e d7bc 916e 0e3e 42ef 0d3d b50e f6bc
00000090: b55b b73d e08c 0abd 552c 99bd 9067 983d
000000a0: 698d 0a3e e678 a63e 117f 823c 283b 933c
000000b0: 4425 cebc d508 ddbf 868e a3bd 5b32 8f3f
0.0052542286 -0.17354318 0.031190012 -0.20860808 -0.0365092 2.3802505 0.069037005 0.11245086
0.08505523 -0.043454356 -0.0680463 -0.048735887 0.08459251 0.027328366 0.09464975 -0.6014556
0.0009859314 -0.29549968 -0.03513133 -0.03994507 2.7119687 0.46838024 -0.01951866 0.018709198
1.1568414 -0.007032204 0.041178625 -0.0670984 0.08257221 0.087517016 0.19362117 0.01914826
-0.026290257 0.13909365 0.034652002 -0.03003631 0.089530386 -0.033825755 -0.07479159 0.07441628
0.13530506 0.32514113 0.01592973 0.017972544 -0.025164254 -1.726832 -0.079861686 1.1187242

fc2.weight f4 [10, 48]
00000000: 674b 553d ec75 a3be f532 42bd d430 be3c
00000010: 44f0 0b3d 5af8 873e e5b7 8fbc f317 92bc
00000020: d682 793d 9b52 983b ea2d 24bd 25f4 1b3d
00000030: e8e9 3f3c 47bc da3b aae2 22bb bcad 113e
00000040: 130b 1c3d 7aae 73bc 02cf 1f3d 00ec 433c
00000050: 3773 3bbb 47e2 bd3d 781c 6cbd 5312 07bd
00000060: c70a bc3d 97af d3bc 413b 12bd 2790 8fbd
00000070: 920d bf39 58fa f43c 53f9 bcbc d242 1aba
00000080: bab1 b3bc b2f6 093d 75f6 15bc dafd 8ebc
00000090: d484 af3c c6ee 4d3d 8296 683c cdc4 bd3b
000000a0: 01c4 a0ba 4ece 953d 91f9 0a3d 28a8 8f3c
000000b0: b50e 66bb 506e 5f3e 2da8 c93c 6154 0bbe
000000c0: 1f50 0f3d 59bf c1bd 3ce2 4cbd 907c cf3b
000000d0: ed1e 343c b341 803e ff59 bdbc 453e c3bb
000000e0: bd51 703d d250 85bc 3be4 e2bc 6a3b 5d3d
000000f0: c329 203c 66e8 873b 3f07 83bc d685 e53c
00000100: 6695 7e3c 6b16 323c f036 233d 6552 173d
00000110: 42ab 2f3d 998d 54be 3777 4abd af75 31bd
00000120: 4c8d 29bf ea4c 17bd b5ce 15bd 5abf 92bd
00000130: 619f ac3b 076f 1a3d 1415 1bbd f695 34bc
00000140: 369c 31bd a8a1 293d 384c 94bb 1243 e5bc
00000150: 798e 5e3c 0e0c 613d 762f d23c 28b0 f13c
00000160: 7434 47bc 4597 cebd b95a d73c 8561 e43b
00000170: 2082 0abc b079 11be 2004 a43c 1e73 793c
00000180: f542 ff3c 7776 51bd 7872 3bbd 5ed0 ed3c
00000190: 0a0b b03c 6d96 173f d33c aabc f8a1 caba
000001a0: ff1b 6e3d 506f 433c 8d85 66bd 71ed 253d
000001b0: 438b d63c 32c2 533c a014 bdbb 4de7 d8be
000001c0: af06 d63c 3b15 a53b 8233 5a3c a4a4 e53c
000001d0: a7d6 3b3d 4d41 8b3e 8b05 77bc a560 97bc
000001e0: 809a b73d 3e37 3abd e0e1 4bbd 7470 90bd
000001f0: 9b59 ec3b 6815 fe3c a717 b9bc 7e7c d7bc
00000200: 81b9 e4bc e0ee 193d 244e 4a3b fee8 80bb
00000210: 4eaa b73c e83e 643d 2011 2bbc 174d b1ba
00000220: 0606 393c a30d 88be affc 1c3d 06bb 633c
00000230: 915f 8cbc 1849 8f3a f620 6d3c 3561 0f3e
00000240: 0ee0 163d 3c3f 44bc 1b7e 73bd db37 0a3d
00000250: 923e 243d f3b7 0c3f 5f62 d4bc 9b19 acbc
00000260: 1449 823d 84a3 0c3d ed01 5cbd 5af2 223d
00000270: 7728 ef3c c756 733c 7fa2 e6bb c9eb cf3e
00000280: 6c30 dd3c f2aa d6bb 0611 193d e6ea ec3c
00000290: 18f3 943d b2b0 d7bd 4e9d 32bd 370e d3bc
000002a0: 9568 1e3e b6ef 08bd 719d 56bd 66d9 aabd
000002b0: 050c b73c e80b 143d dbf8 d4bc 291e d7bc
000002c0: dd13 1ebd 7939 5c3d 52d0 a3bc 81a8 c1bc
000002d0: 6915 ffba 9bc7 663d 3356 9fbb 80a6 d63b
000002e0: 9b82 9d3b 1fb2 87bc 8893 363d c2eb 323b
000002f0: 73b3 1dbc 9316 aabe c0ab eb3b e901 0b3e
00000300: 6ec5 4b3d 925f 883d c206 2cbd 50e5 a03c
00000310: 5ff2 9e3c 8bbd a43e 42eb 23bc 8f14 24bc
00000320: 9f88 7c3d ed2a fa3c 7048 24bd 2fe0 4e3d
00000330: 8bb6 aa3c dd65 343c 2a8b 733b 810d a8be
00000340: db47 4c3d 4687 623b 47e4 9d3c da28 b63c
00000350: 5b5f fe3c b57d e7be ee40 eabc a4ef e4bc
00000360: a735 153e ccf1 11bd 4c9a 13bd 406a 9fbd
00000370: 2557 e73a c4ef 143d 5244 91bc 58c3 98ba
00000380: 698d 4ebd a1e2 1b3d 6d63 15bb 1a7a c8bc
00000390: 8b26 b33c fc8f 323d 5906 5bbb a4c1 783c
000003a0: 6995 fabb 6f03 8f3c 14bd 163d 3877 6fbc
000003b0: fd94 263a 2d42 0abc 5c6d aa3c ef3a 873d
000003c0: e5d4 1e3d 8f79 6d3e b59b 68bd 11a0 803c
000003d0: 6b78 ac3c 045d 55be 625b 9abc f412 9cbc
000003e0: 51bf 503d bfa2 e0bb ac68 39bd 12cb 113d
000003f0: c210 66bb 47ce ef3b 67fb 8bbc eb28 74bd
0.052073862 -0.31925905 -0.047411878 0.023216642 0.034164682 0.26556665 -0.017543742 -0.017833686
0.06091579 0.004648519 -0.04008285 0.03807463 0.011713482 0.0066752764 -0.002485434 0.1422643
0.0380965 -0.014873141 0.039015777 0.011958122 -0.002860261 0.092716746 -0.057644337 -0.03297646
0.09181743 -0.025840564 -0.03570104 -0.07009917 0.0003644047 0.02990453 -0.023068106 -0.0005884591
-0.021935333 0.033682533 -0.009152998 -0.01745503 0.021425642 0.05027654 0.01419604 0.0057912827
-0.0012265445 0.0731474 0.03392941 0.017536238 -0.003510398 0.21819425 0.024616325 -0.13606407
0.03498852 -0.09460325 -0.05002044 0.0063319877 0.010993701 0.25050125 -0.023114203 -0.005958351
0.0586717 -0.01627389 -0.02769672 0.05401174 0.009775582 0.004147577 -0.015994666 0.02801792
0.015538549 0.010869603 0.039847314 0.036943812 0.042887934 -0.2075714 -0.0494301 -0.043325122
-0.66231227 -0.036938585 -0.036574084 -0.07165404 0.005268023 0.03770354 -0.0378619 -0.011022082
-0.043361865 0.041413933 -0.0045256875 -0.027986083 0.013583773 0.054943137 0.025657397 0.029502943
-0.012158502 -0.10087446 0.026288377 0.006969633 -0.008453876 -0.14206576 0.020021498 0.0152252
0.031159857 -0.051138368 -0.045763463 0.029030021 0.021489639 0.59213907 -0.020780956 -0.0015459647
0.058132168 0.011928394 -0.056279708 0.040509645 0.026189452 0.012924718 -0.005770281 -0.42363968
0.026126234 0.0050379313 0.0133179445 0.028032608 0.045859005 0.27198258 -0.015077005 -0.0184787
0.089650154 -0.04546284 -0.049775958 -0.07052699 0.0072128302 0.031016067 -0.022594286 -0.02630448
-0.027920486 0.037581325 0.003086933 -0.003934025 0.022420075 0.055724055 -0.010441095 -0.0013527003
0.01129294 -0.26572904 0.038326915 0.01389957 -0.017135413 0.0010931818 0.0144731905 0.14001925
0.03683477 -0.011977967 -0.059446435 0.033744674 0.040098734 0.54968184 -0.025925813 -0.021008303
0.06361595 0.03433563 -0.053712774 0.039781906 0.0291941 0.014852232 -0.007038414 0.40609577
0.027000628 -0.00655114 0.03736975 0.028920602 0.07272929 -0.10531749 -0.04360705 -0.025763614
0.15469582 -0.03343173 -0.05239624 -0.08342247 0.022344599 0.036144167 -0.02599757 -0.026259499
-0.03859316 0.053765748 -0.019996796 -0.02363992 -0.0019461337 0.056342702 -0.0048625707 0.00655061
0.004806829 -0.016564427 0.04457429 0.0027301167 -0.009625304 -0.33220348 0.007192105 0.13574947
0.04974883 0.066588536 -0.041998632 0.019640595 0.01940268 0.3217586 -0.01000482 -0.010014667
0.06165373 0.030538047 -0.040108144 0.050506767 0.020838996 0.011010614 0.0037161806 -0.32822803
0.049873214 0.0034565493 0.01927389 0.022236276 0.031051328 -0.45213094 -0.028595414 -0.0279463
0.14571248 -0.035630986 -0.03603582 -0.077839375 0.0017649872 0.03636147 -0.017732773 -0.0011654897
-0.050427828 0.038057927 -0.0022794858 -0.024472285 0.021868965 0.043594345 -0.0033420532 0.015182886
-0.0076472056 0.017457692 0.036801413 -0.014615826 0.00063545984 -0.008438629 0.0208041 0.066030376
0.03877725 0.23190902 -0.05678912 0.015701326 0.021053514 -0.20836264 -0.018842403 -0.019052006
0.050963704 -0.0068553383 -0.04526584 0.035594054 -0.0035105203 0.0073182913 -0.017087651 -0.059609335

fc2.bias f4 [10]
00000000: 9c2f c13e 0a4c 1ebf 93f2 1dbf c927 a13d
00000010: bb05 313f 1f54 28bf ba23 523f 2522 33bf
00000020: c5b6 9cbe e64f 05c0
0.37731636 -0.61834776 -0.61698264 0.078689165 0.6914937 -0.6575336 0.82085764 -0.69973975
-0.30608192 -2.0830016
